…
I1112 01:56:25.769345  8156 net.cpp:294] The NetState phase (0) differed from the phase (1) specified by a rule in layer mnist
I1112 01:56:25.769369  8156 net.cpp:294] The NetState phase (0) differed from the phase (1) specified by a rule in layer accuracy
I1112 01:56:25.769476  8156 net.cpp:51] Initializing net from parameters: 
name: "LeNet"
state {
  phase: TRAIN
  level: 0
  stage: ""
}
layer {
  name: "mnist"
  type: "Data"
  top: "data"
  top: "label"
  include {
    phase: TRAIN
  }
  transform_param {
    scale: 0.00390625
  }
  data_param {
    source: "examples/mnist/mnist_train_lmdb"
    batch_size: 64
    backend: LMDB
  }
}
layer {
  name: "conv1"
  type: "Convolution"
  bottom: "data"
  top: "conv1"
  param {
    lr_mult: 1
  }
  param {
    lr_mult: 2
  }
  convolution_param {
    num_output: 20
    kernel_size: 5
    stride: 1
    weight_filler {
      type: "xavier"
    }
    bias_filler {
      type: "constant"
    }
  }
}
layer {
  name: "pool1"
  type: "Pooling"
  bottom: "conv1"
  top: "pool1"
  pooling_param {
    pool: MAX
    kernel_size: 2
    stride: 2
  }
}
layer {
  name: "relu0"
  type: "ReLU"
  bottom: "pool1"
  top: "pool1"
}
layer {
  name: "conv2"
  type: "Convolution"
  bottom: "pool1"
  top: "conv2"
  param {
    lr_mult: 1
  }
  param {
    lr_mult: 2
  }
  convolution_param {
    num_output: 50
    kernel_size: 5
    stride: 1
    weight_filler {
      type: "xavier"
    }
    bias_filler {
      type: "constant"
    }
  }
}
layer {
  name: "pool2"
  type: "Pooling"
  bottom: "conv2"
  top: "pool2"
  pooling_param {
    pool: MAX
    kernel_size: 2
    stride: 2
  }
}
layer {
  name: "ip1"
  type: "InnerProduct"
  bottom: "pool2"
  top: "ip1"
  param {
    lr_mult: 1
  }
  param {
    lr_mult: 2
  }
  inner_product_param {
    num_output: 500
    weight_filler {
      type: "xavier"
    }
    bias_filler {
      type: "constant"
    }
  }
}
layer {
  name: "relu1"
  type: "ReLU"
  bottom: "ip1"
  top: "ip1"
}
layer {
  name: "drop1"
  type: "Dropout"
  bottom: "ip1"
  top: "ip1"
  dropout_param {
    dropout_ratio: 0.5
  }
}
layer {
  name: "ip2"
  type: "InnerProduct"
  bottom: "ip1"
  top: "ip2"
  param {
    lr_mult: 1
  }
  param {
    lr_mult: 2
  }
  inner_product_param {
    num_output: 500
    weight_filler {
      type: "xavier"
    }
    bias_filler {
      type: "constant"
    }
  }
}
layer {
  name: "relu2"
  type: "ReLU"
  bottom: "ip2"
  top: "ip2"
}
layer {
  name: "ip3"
  type: "InnerProduct"
  bottom: "ip2"
  top: "ip3"
  param {
    lr_mult: 1
  }
  param {
    lr_mult: 2
  }
  inner_product_param {
    num_output: 10
    weight_filler {
      type: "xavier"
    }
    bias_filler {
      type: "constant"
    }
  }
}
layer {
  name: "loss"
  type: "SoftmaxWithLoss"
  bottom: "ip3"
  bottom: "label"
  top: "loss"
}
I1112 01:56:25.769541  8156 layer_factory.hpp:77] Creating layer mnist
I1112 01:56:25.769667  8156 db_lmdb.cpp:35] Opened lmdb examples/mnist/mnist_train_lmdb
I1112 01:56:25.769696  8156 net.cpp:84] Creating Layer mnist
I1112 01:56:25.769707  8156 net.cpp:380] mnist -> data
I1112 01:56:25.769731  8156 net.cpp:380] mnist -> label
I1112 01:56:25.769762  8156 data_layer.cpp:45] output data size: 64,1,28,28
I1112 01:56:25.770252  8156 net.cpp:122] Setting up mnist
I1112 01:56:25.770264  8156 net.cpp:129] Top shape: 64 1 28 28 (50176)
I1112 01:56:25.770269  8156 net.cpp:129] Top shape: 64 (64)
I1112 01:56:25.770273  8156 net.cpp:137] Memory required for data: 200960
I1112 01:56:25.770279  8156 layer_factory.hpp:77] Creating layer conv1
I1112 01:56:25.770300  8156 net.cpp:84] Creating Layer conv1
I1112 01:56:25.770313  8156 net.cpp:406] conv1 <- data
I1112 01:56:25.770325  8156 net.cpp:380] conv1 -> conv1
I1112 01:56:25.770367  8156 net.cpp:122] Setting up conv1
I1112 01:56:25.770375  8156 net.cpp:129] Top shape: 64 20 24 24 (737280)
I1112 01:56:25.770388  8156 net.cpp:137] Memory required for data: 3150080
I1112 01:56:25.770407  8156 layer_factory.hpp:77] Creating layer pool1
I1112 01:56:25.770418  8156 net.cpp:84] Creating Layer pool1
I1112 01:56:25.770422  8156 net.cpp:406] pool1 <- conv1
I1112 01:56:25.770431  8156 net.cpp:380] pool1 -> pool1
I1112 01:56:25.770445  8156 net.cpp:122] Setting up pool1
I1112 01:56:25.770452  8156 net.cpp:129] Top shape: 64 20 12 12 (184320)
I1112 01:56:25.770455  8156 net.cpp:137] Memory required for data: 3887360
I1112 01:56:25.770459  8156 layer_factory.hpp:77] Creating layer relu0
I1112 01:56:25.770467  8156 net.cpp:84] Creating Layer relu0
I1112 01:56:25.770472  8156 net.cpp:406] relu0 <- pool1
I1112 01:56:25.770478  8156 net.cpp:367] relu0 -> pool1 (in-place)
I1112 01:56:25.770484  8156 net.cpp:122] Setting up relu0
I1112 01:56:25.770490  8156 net.cpp:129] Top shape: 64 20 12 12 (184320)
I1112 01:56:25.770496  8156 net.cpp:137] Memory required for data: 4624640
I1112 01:56:25.770501  8156 layer_factory.hpp:77] Creating layer conv2
I1112 01:56:25.770509  8156 net.cpp:84] Creating Layer conv2
I1112 01:56:25.770515  8156 net.cpp:406] conv2 <- pool1
I1112 01:56:25.770521  8156 net.cpp:380] conv2 -> conv2
I1112 01:56:25.770766  8156 net.cpp:122] Setting up conv2
I1112 01:56:25.770773  8156 net.cpp:129] Top shape: 64 50 8 8 (204800)
I1112 01:56:25.770779  8156 net.cpp:137] Memory required for data: 5443840
I1112 01:56:25.770787  8156 layer_factory.hpp:77] Creating layer pool2
I1112 01:56:25.770794  8156 net.cpp:84] Creating Layer pool2
I1112 01:56:25.770798  8156 net.cpp:406] pool2 <- conv2
I1112 01:56:25.770804  8156 net.cpp:380] pool2 -> pool2
I1112 01:56:25.770812  8156 net.cpp:122] Setting up pool2
I1112 01:56:25.770817  8156 net.cpp:129] Top shape: 64 50 4 4 (51200)
I1112 01:56:25.770822  8156 net.cpp:137] Memory required for data: 5648640
I1112 01:56:25.770825  8156 layer_factory.hpp:77] Creating layer ip1
I1112 01:56:25.770831  8156 net.cpp:84] Creating Layer ip1
I1112 01:56:25.770835  8156 net.cpp:406] ip1 <- pool2
I1112 01:56:25.770841  8156 net.cpp:380] ip1 -> ip1
I1112 01:56:25.774432  8156 net.cpp:122] Setting up ip1
I1112 01:56:25.774461  8156 net.cpp:129] Top shape: 64 500 (32000)
I1112 01:56:25.774466  8156 net.cpp:137] Memory required for data: 5776640
I1112 01:56:25.774477  8156 layer_factory.hpp:77] Creating layer relu1
I1112 01:56:25.774484  8156 net.cpp:84] Creating Layer relu1
I1112 01:56:25.774488  8156 net.cpp:406] relu1 <- ip1
I1112 01:56:25.774494  8156 net.cpp:367] relu1 -> ip1 (in-place)
I1112 01:56:25.774502  8156 net.cpp:122] Setting up relu1
I1112 01:56:25.774507  8156 net.cpp:129] Top shape: 64 500 (32000)
I1112 01:56:25.774510  8156 net.cpp:137] Memory required for data: 5904640
I1112 01:56:25.774513  8156 layer_factory.hpp:77] Creating layer drop1
I1112 01:56:25.774520  8156 net.cpp:84] Creating Layer drop1
I1112 01:56:25.774524  8156 net.cpp:406] drop1 <- ip1
I1112 01:56:25.774529  8156 net.cpp:367] drop1 -> ip1 (in-place)
I1112 01:56:25.774539  8156 net.cpp:122] Setting up drop1
I1112 01:56:25.774544  8156 net.cpp:129] Top shape: 64 500 (32000)
I1112 01:56:25.774547  8156 net.cpp:137] Memory required for data: 6032640
I1112 01:56:25.774551  8156 layer_factory.hpp:77] Creating layer ip2
I1112 01:56:25.774557  8156 net.cpp:84] Creating Layer ip2
I1112 01:56:25.774561  8156 net.cpp:406] ip2 <- ip1
I1112 01:56:25.774567  8156 net.cpp:380] ip2 -> ip2
I1112 01:56:25.776782  8156 net.cpp:122] Setting up ip2
I1112 01:56:25.776790  8156 net.cpp:129] Top shape: 64 500 (32000)
I1112 01:56:25.776794  8156 net.cpp:137] Memory required for data: 6160640
I1112 01:56:25.776800  8156 layer_factory.hpp:77] Creating layer relu2
I1112 01:56:25.776806  8156 net.cpp:84] Creating Layer relu2
I1112 01:56:25.776820  8156 net.cpp:406] relu2 <- ip2
I1112 01:56:25.776834  8156 net.cpp:367] relu2 -> ip2 (in-place)
I1112 01:56:25.776840  8156 net.cpp:122] Setting up relu2
I1112 01:56:25.776845  8156 net.cpp:129] Top shape: 64 500 (32000)
I1112 01:56:25.776849  8156 net.cpp:137] Memory required for data: 6288640
I1112 01:56:25.776852  8156 layer_factory.hpp:77] Creating layer ip3
I1112 01:56:25.776859  8156 net.cpp:84] Creating Layer ip3
I1112 01:56:25.776862  8156 net.cpp:406] ip3 <- ip2
I1112 01:56:25.776867  8156 net.cpp:380] ip3 -> ip3
I1112 01:56:25.776926  8156 net.cpp:122] Setting up ip3
I1112 01:56:25.776932  8156 net.cpp:129] Top shape: 64 10 (640)
I1112 01:56:25.776937  8156 net.cpp:137] Memory required for data: 6291200
I1112 01:56:25.776943  8156 layer_factory.hpp:77] Creating layer loss
I1112 01:56:25.776949  8156 net.cpp:84] Creating Layer loss
I1112 01:56:25.776953  8156 net.cpp:406] loss <- ip3
I1112 01:56:25.776958  8156 net.cpp:406] loss <- label
I1112 01:56:25.776964  8156 net.cpp:380] loss -> loss
I1112 01:56:25.776976  8156 layer_factory.hpp:77] Creating layer loss
…
I1112 01:56:25.777281  8156 solver.cpp:173] Creating test net (#0) specified by net file: examples/mnist/lenet_train_test_5.prototxt
I1112 01:56:25.777307  8156 net.cpp:294] The NetState phase (1) differed from the phase (0) specified by a rule in layer mnist
I1112 01:56:25.777401  8156 net.cpp:51] Initializing net from parameters: 
name: "LeNet"
state {
  phase: TEST
}
layer {
  name: "mnist"
  type: "Data"
  top: "data"
  top: "label"
  include {
    phase: TEST
  }
  transform_param {
    scale: 0.00390625
  }
  data_param {
    source: "examples/mnist/mnist_test_lmdb"
    batch_size: 100
    backend: LMDB
  }
}
layer {
  name: "conv1"
  type: "Convolution"
  bottom: "data"
  top: "conv1"
  param {
    lr_mult: 1
  }
  param {
    lr_mult: 2
  }
  convolution_param {
    num_output: 20
    kernel_size: 5
    stride: 1
    weight_filler {
      type: "xavier"
    }
    bias_filler {
      type: "constant"
    }
  }
}
layer {
  name: "pool1"
  type: "Pooling"
  bottom: "conv1"
  top: "pool1"
  pooling_param {
    pool: MAX
    kernel_size: 2
    stride: 2
  }
}
layer {
  name: "relu0"
  type: "ReLU"
  bottom: "pool1"
  top: "pool1"
}
layer {
  name: "conv2"
  type: "Convolution"
  bottom: "pool1"
  top: "conv2"
  param {
    lr_mult: 1
  }
  param {
    lr_mult: 2
  }
  convolution_param {
    num_output: 50
    kernel_size: 5
    stride: 1
    weight_filler {
      type: "xavier"
    }
    bias_filler {
      type: "constant"
    }
  }
}
layer {
  name: "pool2"
  type: "Pooling"
  bottom: "conv2"
  top: "pool2"
  pooling_param {
    pool: MAX
    kernel_size: 2
    stride: 2
  }
}
layer {
  name: "ip1"
  type: "InnerProduct"
  bottom: "pool2"
  top: "ip1"
  param {
    lr_mult: 1
  }
  param {
    lr_mult: 2
  }
  inner_product_param {
    num_output: 500
    weight_filler {
      type: "xavier"
    }
    bias_filler {
      type: "constant"
    }
  }
}
layer {
  name: "relu1"
  type: "ReLU"
  bottom: "ip1"
  top: "ip1"
}
layer {
  name: "drop1"
  type: "Dropout"
  bottom: "ip1"
  top: "ip1"
  dropout_param {
    dropout_ratio: 0.5
  }
}
layer {
  name: "ip2"
  type: "InnerProduct"
  bottom: "ip1"
  top: "ip2"
  param {
    lr_mult: 1
  }
  param {
    lr_mult: 2
  }
  inner_product_param {
    num_output: 500
    weight_filler {
      type: "xavier"
    }
    bias_filler {
      type: "constant"
    }
  }
}
layer {
  name: "relu2"
  type: "ReLU"
  bottom: "ip2"
  top: "ip2"
}
layer {
  name: "ip3"
  type: "InnerProduct"
  bottom: "ip2"
  top: "ip3"
  param {
    lr_mult: 1
  }
  param {
    lr_mult: 2
  }
  inner_product_param {
    num_output: 10
    weight_filler {
      type: "xavier"
    }
    bias_filler {
      type: "constant"
    }
  }
}
layer {
  name: "accuracy"
  type: "Accuracy"
  bottom: "ip3"
  bottom: "label"
  top: "accuracy"
  include {
    phase: TEST
  }
}
layer {
  name: "loss"
  type: "SoftmaxWithLoss"
  bottom: "ip3"
  bottom: "label"
  top: "loss"
}
I1112 01:56:25.777480  8156 layer_factory.hpp:77] Creating layer mnist
I1112 01:56:25.777531  8156 db_lmdb.cpp:35] Opened lmdb examples/mnist/mnist_test_lmdb
I1112 01:56:25.777546  8156 net.cpp:84] Creating Layer mnist
I1112 01:56:25.777554  8156 net.cpp:380] mnist -> data
I1112 01:56:25.777564  8156 net.cpp:380] mnist -> label
I1112 01:56:25.777580  8156 data_layer.cpp:45] output data size: 100,1,28,28
I1112 01:56:25.777626  8156 net.cpp:122] Setting up mnist
I1112 01:56:25.777634  8156 net.cpp:129] Top shape: 100 1 28 28 (78400)
I1112 01:56:25.777639  8156 net.cpp:129] Top shape: 100 (100)
I1112 01:56:25.777643  8156 net.cpp:137] Memory required for data: 314000
I1112 01:56:25.777647  8156 layer_factory.hpp:77] Creating layer label_mnist_1_split
I1112 01:56:25.777653  8156 net.cpp:84] Creating Layer label_mnist_1_split
I1112 01:56:25.777658  8156 net.cpp:406] label_mnist_1_split <- label
I1112 01:56:25.777675  8156 net.cpp:380] label_mnist_1_split -> label_mnist_1_split_0
I1112 01:56:25.777685  8156 net.cpp:380] label_mnist_1_split -> label_mnist_1_split_1
I1112 01:56:25.777693  8156 net.cpp:122] Setting up label_mnist_1_split
I1112 01:56:25.777699  8156 net.cpp:129] Top shape: 100 (100)
I1112 01:56:25.777706  8156 net.cpp:129] Top shape: 100 (100)
I1112 01:56:25.777710  8156 net.cpp:137] Memory required for data: 314800
I1112 01:56:25.777714  8156 layer_factory.hpp:77] Creating layer conv1
I1112 01:56:25.777724  8156 net.cpp:84] Creating Layer conv1
I1112 01:56:25.777730  8156 net.cpp:406] conv1 <- data
I1112 01:56:25.777739  8156 net.cpp:380] conv1 -> conv1
I1112 01:56:25.777766  8156 net.cpp:122] Setting up conv1
I1112 01:56:25.777773  8156 net.cpp:129] Top shape: 100 20 24 24 (1152000)
I1112 01:56:25.777778  8156 net.cpp:137] Memory required for data: 4922800
I1112 01:56:25.777788  8156 layer_factory.hpp:77] Creating layer pool1
I1112 01:56:25.777794  8156 net.cpp:84] Creating Layer pool1
I1112 01:56:25.777799  8156 net.cpp:406] pool1 <- conv1
I1112 01:56:25.777806  8156 net.cpp:380] pool1 -> pool1
I1112 01:56:25.777814  8156 net.cpp:122] Setting up pool1
I1112 01:56:25.777822  8156 net.cpp:129] Top shape: 100 20 12 12 (288000)
I1112 01:56:25.777825  8156 net.cpp:137] Memory required for data: 6074800
I1112 01:56:25.777829  8156 layer_factory.hpp:77] Creating layer relu0
I1112 01:56:25.777837  8156 net.cpp:84] Creating Layer relu0
I1112 01:56:25.777842  8156 net.cpp:406] relu0 <- pool1
I1112 01:56:25.777850  8156 net.cpp:367] relu0 -> pool1 (in-place)
I1112 01:56:25.777863  8156 net.cpp:122] Setting up relu0
I1112 01:56:25.777868  8156 net.cpp:129] Top shape: 100 20 12 12 (288000)
I1112 01:56:25.777871  8156 net.cpp:137] Memory required for data: 7226800
I1112 01:56:25.777875  8156 layer_factory.hpp:77] Creating layer conv2
I1112 01:56:25.777887  8156 net.cpp:84] Creating Layer conv2
I1112 01:56:25.777896  8156 net.cpp:406] conv2 <- pool1
I1112 01:56:25.777907  8156 net.cpp:380] conv2 -> conv2
I1112 01:56:25.778103  8156 net.cpp:122] Setting up conv2
I1112 01:56:25.778111  8156 net.cpp:129] Top shape: 100 50 8 8 (320000)
I1112 01:56:25.778115  8156 net.cpp:137] Memory required for data: 8506800
I1112 01:56:25.778122  8156 layer_factory.hpp:77] Creating layer pool2
I1112 01:56:25.778128  8156 net.cpp:84] Creating Layer pool2
I1112 01:56:25.778132  8156 net.cpp:406] pool2 <- conv2
I1112 01:56:25.778138  8156 net.cpp:380] pool2 -> pool2
I1112 01:56:25.778146  8156 net.cpp:122] Setting up pool2
I1112 01:56:25.778151  8156 net.cpp:129] Top shape: 100 50 4 4 (80000)
I1112 01:56:25.778154  8156 net.cpp:137] Memory required for data: 8826800
I1112 01:56:25.778157  8156 layer_factory.hpp:77] Creating layer ip1
I1112 01:56:25.778164  8156 net.cpp:84] Creating Layer ip1
I1112 01:56:25.778167  8156 net.cpp:406] ip1 <- pool2
I1112 01:56:25.778177  8156 net.cpp:380] ip1 -> ip1
I1112 01:56:25.780702  8156 net.cpp:122] Setting up ip1
I1112 01:56:25.780719  8156 net.cpp:129] Top shape: 100 500 (50000)
I1112 01:56:25.780724  8156 net.cpp:137] Memory required for data: 9026800
I1112 01:56:25.780733  8156 layer_factory.hpp:77] Creating layer relu1
I1112 01:56:25.780741  8156 net.cpp:84] Creating Layer relu1
I1112 01:56:25.780745  8156 net.cpp:406] relu1 <- ip1
I1112 01:56:25.780751  8156 net.cpp:367] relu1 -> ip1 (in-place)
I1112 01:56:25.780757  8156 net.cpp:122] Setting up relu1
I1112 01:56:25.780762  8156 net.cpp:129] Top shape: 100 500 (50000)
I1112 01:56:25.780766  8156 net.cpp:137] Memory required for data: 9226800
I1112 01:56:25.780768  8156 layer_factory.hpp:77] Creating layer drop1
I1112 01:56:25.780776  8156 net.cpp:84] Creating Layer drop1
I1112 01:56:25.780778  8156 net.cpp:406] drop1 <- ip1
I1112 01:56:25.780784  8156 net.cpp:367] drop1 -> ip1 (in-place)
I1112 01:56:25.780791  8156 net.cpp:122] Setting up drop1
I1112 01:56:25.780795  8156 net.cpp:129] Top shape: 100 500 (50000)
I1112 01:56:25.780798  8156 net.cpp:137] Memory required for data: 9426800
I1112 01:56:25.780802  8156 layer_factory.hpp:77] Creating layer ip2
I1112 01:56:25.780808  8156 net.cpp:84] Creating Layer ip2
I1112 01:56:25.780812  8156 net.cpp:406] ip2 <- ip1
I1112 01:56:25.780817  8156 net.cpp:380] ip2 -> ip2
I1112 01:56:25.782369  8156 net.cpp:122] Setting up ip2
I1112 01:56:25.782377  8156 net.cpp:129] Top shape: 100 500 (50000)
I1112 01:56:25.782380  8156 net.cpp:137] Memory required for data: 9626800
I1112 01:56:25.782385  8156 layer_factory.hpp:77] Creating layer relu2
I1112 01:56:25.782390  8156 net.cpp:84] Creating Layer relu2
I1112 01:56:25.782394  8156 net.cpp:406] relu2 <- ip2
I1112 01:56:25.782398  8156 net.cpp:367] relu2 -> ip2 (in-place)
I1112 01:56:25.782403  8156 net.cpp:122] Setting up relu2
I1112 01:56:25.782408  8156 net.cpp:129] Top shape: 100 500 (50000)
I1112 01:56:25.782411  8156 net.cpp:137] Memory required for data: 9826800
I1112 01:56:25.782414  8156 layer_factory.hpp:77] Creating layer ip3
I1112 01:56:25.782420  8156 net.cpp:84] Creating Layer ip3
I1112 01:56:25.782424  8156 net.cpp:406] ip3 <- ip2
I1112 01:56:25.782430  8156 net.cpp:380] ip3 -> ip3
I1112 01:56:25.782467  8156 net.cpp:122] Setting up ip3
I1112 01:56:25.782474  8156 net.cpp:129] Top shape: 100 10 (1000)
I1112 01:56:25.782476  8156 net.cpp:137] Memory required for data: 9830800
I1112 01:56:25.782483  8156 layer_factory.hpp:77] Creating layer ip3_ip3_0_split
I1112 01:56:25.782490  8156 net.cpp:84] Creating Layer ip3_ip3_0_split
I1112 01:56:25.782493  8156 net.cpp:406] ip3_ip3_0_split <- ip3
I1112 01:56:25.782498  8156 net.cpp:380] ip3_ip3_0_split -> ip3_ip3_0_split_0
I1112 01:56:25.782505  8156 net.cpp:380] ip3_ip3_0_split -> ip3_ip3_0_split_1
I1112 01:56:25.782511  8156 net.cpp:122] Setting up ip3_ip3_0_split
I1112 01:56:25.782516  8156 net.cpp:129] Top shape: 100 10 (1000)
I1112 01:56:25.782521  8156 net.cpp:129] Top shape: 100 10 (1000)
I1112 01:56:25.782523  8156 net.cpp:137] Memory required for data: 9838800
I1112 01:56:25.782533  8156 layer_factory.hpp:77] Creating layer accuracy
I1112 01:56:25.782546  8156 net.cpp:84] Creating Layer accuracy
I1112 01:56:25.782549  8156 net.cpp:406] accuracy <- ip3_ip3_0_split_0
I1112 01:56:25.782553  8156 net.cpp:406] accuracy <- label_mnist_1_split_0
I1112 01:56:25.782560  8156 net.cpp:380] accuracy -> accuracy
…
