I1111 20:40:27.889888 22814 layer_factory.hpp:77] Creating layer mnist
I1111 20:40:27.903496 22814 db_lmdb.cpp:35] Opened lmdb examples/mnist/mnist_test_lmdb
I1111 20:40:27.941597 22814 net.cpp:84] Creating Layer mnist
I1111 20:40:27.941716 22814 net.cpp:380] mnist -> data
I1111 20:40:27.941773 22814 net.cpp:380] mnist -> label
I1111 20:40:27.941853 22814 data_layer.cpp:45] output data size: 100,1,28,28
I1111 20:40:27.942118 22814 net.cpp:122] Setting up mnist
I1111 20:40:27.942169 22814 net.cpp:129] Top shape: 100 1 28 28 (78400)
I1111 20:40:27.942200 22814 net.cpp:129] Top shape: 100 (100)
I1111 20:40:27.942222 22814 net.cpp:137] Memory required for data: 314000
I1111 20:40:27.942247 22814 layer_factory.hpp:77] Creating layer label_mnist_1_split
I1111 20:40:27.942292 22814 net.cpp:84] Creating Layer label_mnist_1_split
I1111 20:40:27.942320 22814 net.cpp:406] label_mnist_1_split <- label
I1111 20:40:27.942433 22814 net.cpp:380] label_mnist_1_split -> label_mnist_1_split_0
I1111 20:40:27.942479 22814 net.cpp:380] label_mnist_1_split -> label_mnist_1_split_1
I1111 20:40:27.942518 22814 net.cpp:122] Setting up label_mnist_1_split
I1111 20:40:27.942546 22814 net.cpp:129] Top shape: 100 (100)
I1111 20:40:27.942570 22814 net.cpp:129] Top shape: 100 (100)
I1111 20:40:27.942589 22814 net.cpp:137] Memory required for data: 314800
I1111 20:40:27.942641 22814 layer_factory.hpp:77] Creating layer conv1
I1111 20:40:27.942704 22814 net.cpp:84] Creating Layer conv1
I1111 20:40:27.942729 22814 net.cpp:406] conv1 <- data
I1111 20:40:27.942771 22814 net.cpp:380] conv1 -> conv1
I1111 20:40:27.942909 22814 net.cpp:122] Setting up conv1
I1111 20:40:27.942940 22814 net.cpp:129] Top shape: 100 20 24 24 (1152000)
I1111 20:40:27.942960 22814 net.cpp:137] Memory required for data: 4922800
I1111 20:40:27.943035 22814 layer_factory.hpp:77] Creating layer pool1
I1111 20:40:27.943094 22814 net.cpp:84] Creating Layer pool1
I1111 20:40:27.943208 22814 net.cpp:406] pool1 <- conv1
I1111 20:40:27.943250 22814 net.cpp:380] pool1 -> pool1
I1111 20:40:27.943354 22814 net.cpp:122] Setting up pool1
I1111 20:40:27.943393 22814 net.cpp:129] Top shape: 100 20 12 12 (288000)
I1111 20:40:27.943413 22814 net.cpp:137] Memory required for data: 6074800
I1111 20:40:27.943434 22814 layer_factory.hpp:77] Creating layer conv2
I1111 20:40:27.943486 22814 net.cpp:84] Creating Layer conv2
I1111 20:40:27.943508 22814 net.cpp:406] conv2 <- pool1
I1111 20:40:27.943545 22814 net.cpp:380] conv2 -> conv2
I1111 20:40:27.944512 22814 net.cpp:122] Setting up conv2
I1111 20:40:27.944562 22814 net.cpp:129] Top shape: 100 50 8 8 (320000)
I1111 20:40:27.944583 22814 net.cpp:137] Memory required for data: 7354800
I1111 20:40:27.944622 22814 layer_factory.hpp:77] Creating layer pool2
I1111 20:40:27.944654 22814 net.cpp:84] Creating Layer pool2
I1111 20:40:27.944675 22814 net.cpp:406] pool2 <- conv2
I1111 20:40:27.944702 22814 net.cpp:380] pool2 -> pool2
I1111 20:40:27.944741 22814 net.cpp:122] Setting up pool2
I1111 20:40:27.944767 22814 net.cpp:129] Top shape: 100 50 4 4 (80000)
I1111 20:40:27.944787 22814 net.cpp:137] Memory required for data: 7674800
I1111 20:40:27.944809 22814 layer_factory.hpp:77] Creating layer ip1
I1111 20:40:27.944849 22814 net.cpp:84] Creating Layer ip1
I1111 20:40:27.944869 22814 net.cpp:406] ip1 <- pool2
I1111 20:40:27.944903 22814 net.cpp:380] ip1 -> ip1
I1111 20:40:27.958799 22814 net.cpp:122] Setting up ip1
I1111 20:40:27.958873 22814 net.cpp:129] Top shape: 100 500 (50000)
I1111 20:40:27.958894 22814 net.cpp:137] Memory required for data: 7874800
I1111 20:40:27.958943 22814 layer_factory.hpp:77] Creating layer relu1
I1111 20:40:27.958976 22814 net.cpp:84] Creating Layer relu1
I1111 20:40:27.959002 22814 net.cpp:406] relu1 <- ip1
I1111 20:40:27.959040 22814 net.cpp:367] relu1 -> ip1 (in-place)
I1111 20:40:27.959077 22814 net.cpp:122] Setting up relu1
I1111 20:40:27.959102 22814 net.cpp:129] Top shape: 100 500 (50000)
I1111 20:40:27.959120 22814 net.cpp:137] Memory required for data: 8074800
I1111 20:40:27.959139 22814 layer_factory.hpp:77] Creating layer ip2
I1111 20:40:27.959182 22814 net.cpp:84] Creating Layer ip2
I1111 20:40:27.959204 22814 net.cpp:406] ip2 <- ip1
I1111 20:40:27.959236 22814 net.cpp:380] ip2 -> ip2
I1111 20:40:27.959475 22814 net.cpp:122] Setting up ip2
I1111 20:40:27.959506 22814 net.cpp:129] Top shape: 100 10 (1000)
I1111 20:40:27.959524 22814 net.cpp:137] Memory required for data: 8078800
I1111 20:40:27.959553 22814 layer_factory.hpp:77] Creating layer ip2_ip2_0_split
I1111 20:40:27.959589 22814 net.cpp:84] Creating Layer ip2_ip2_0_split
I1111 20:40:27.959609 22814 net.cpp:406] ip2_ip2_0_split <- ip2
I1111 20:40:27.959637 22814 net.cpp:380] ip2_ip2_0_split -> ip2_ip2_0_split_0
I1111 20:40:27.959677 22814 net.cpp:380] ip2_ip2_0_split -> ip2_ip2_0_split_1
I1111 20:40:27.959729 22814 net.cpp:122] Setting up ip2_ip2_0_split
I1111 20:40:27.959769 22814 net.cpp:129] Top shape: 100 10 (1000)
I1111 20:40:27.959805 22814 net.cpp:129] Top shape: 100 10 (1000)
I1111 20:40:27.959833 22814 net.cpp:137] Memory required for data: 8086800
I1111 20:40:27.959861 22814 layer_factory.hpp:77] Creating layer accuracy
I1111 20:40:27.959894 22814 net.cpp:84] Creating Layer accuracy
I1111 20:40:27.959915 22814 net.cpp:406] accuracy <- ip2_ip2_0_split_0
I1111 20:40:27.959941 22814 net.cpp:406] accuracy <- label_mnist_1_split_0
I1111 20:40:27.959977 22814 net.cpp:380] accuracy -> accuracy
…
