…
I1113 00:11:21.368801  9630 net.cpp:294] The NetState phase (0) differed from the phase (1) specified by a rule in layer mnist
I1113 00:11:21.368814  9630 net.cpp:294] The NetState phase (0) differed from the phase (1) specified by a rule in layer accuracy
I1113 00:11:21.368885  9630 net.cpp:51] Initializing net from parameters: 
name: "LeNet"
state {
  phase: TRAIN
  level: 0
  stage: ""
}
layer {
  name: "mnist"
  type: "Data"
  top: "data"
  top: "label"
  include {
    phase: TRAIN
  }
  transform_param {
    scale: 0.00390625
  }
  data_param {
    source: "examples/mnist/mnist_train_lmdb"
    batch_size: 64
    backend: LMDB
  }
}
layer {
  name: "conv1"
  type: "Convolution"
  bottom: "data"
  top: "conv1"
  param {
    lr_mult: 1
  }
  param {
    lr_mult: 2
  }
  convolution_param {
    num_output: 20
    kernel_size: 5
    stride: 1
    weight_filler {
      type: "xavier"
    }
    bias_filler {
      type: "constant"
    }
  }
}
layer {
  name: "pool1"
  type: "Pooling"
  bottom: "conv1"
  top: "pool1"
  pooling_param {
    pool: MAX
    kernel_size: 2
    stride: 2
  }
}
layer {
  name: "conv2"
  type: "Convolution"
  bottom: "pool1"
  top: "conv2"
  param {
    lr_mult: 1
  }
  param {
    lr_mult: 2
  }
  convolution_param {
    num_output: 50
    kernel_size: 5
    stride: 1
    weight_filler {
      type: "xavier"
    }
    bias_filler {
      type: "constant"
    }
  }
}
layer {
  name: "pool2"
  type: "Pooling"
  bottom: "conv2"
  top: "pool2"
  pooling_param {
    pool: MAX
    kernel_size: 2
    stride: 2
  }
}
layer {
  name: "ip1"
  type: "InnerProduct"
  bottom: "pool2"
  top: "ip1"
  param {
    lr_mult: 1
  }
  param {
    lr_mult: 2
  }
  inner_product_param {
    num_output: 500
    weight_filler {
      type: "xavier"
    }
    bias_filler {
      type: "constant"
    }
  }
}
layer {
  name: "relu1"
  type: "ReLU"
  bottom: "ip1"
  top: "ip1"
}
layer {
  name: "ip2"
  type: "InnerProduct"
  bottom: "ip1"
  top: "ip2"
  param {
    lr_mult: 1
  }
  param {
    lr_mult: 2
  }
  inner_product_param {
    num_output: 10
    weight_filler {
      type: "xavier"
    }
    bias_filler {
      type: "constant"
    }
  }
}
layer {
  name: "loss"
  type: "SoftmaxWithLoss"
  bottom: "ip2"
  bottom: "label"
  top: "loss"
}
I1113 00:11:21.368932  9630 layer_factory.hpp:77] Creating layer mnist
I1113 00:11:21.406750  9630 db_lmdb.cpp:35] Opened lmdb examples/mnist/mnist_train_lmdb
I1113 00:11:21.417721  9630 net.cpp:84] Creating Layer mnist
I1113 00:11:21.417781  9630 net.cpp:380] mnist -> data
I1113 00:11:21.417820  9630 net.cpp:380] mnist -> label
I1113 00:11:21.417871  9630 data_layer.cpp:45] output data size: 64,1,28,28
I1113 00:11:21.418498  9630 net.cpp:122] Setting up mnist
I1113 00:11:21.418522  9630 net.cpp:129] Top shape: 64 1 28 28 (50176)
I1113 00:11:21.418534  9630 net.cpp:129] Top shape: 64 (64)
I1113 00:11:21.418541  9630 net.cpp:137] Memory required for data: 200960
I1113 00:11:21.418555  9630 layer_factory.hpp:77] Creating layer conv1
I1113 00:11:21.418579  9630 net.cpp:84] Creating Layer conv1
I1113 00:11:21.418592  9630 net.cpp:406] conv1 <- data
I1113 00:11:21.418612  9630 net.cpp:380] conv1 -> conv1
I1113 00:11:21.418678  9630 net.cpp:122] Setting up conv1
I1113 00:11:21.418692  9630 net.cpp:129] Top shape: 64 20 24 24 (737280)
I1113 00:11:21.418704  9630 net.cpp:137] Memory required for data: 3150080
I1113 00:11:21.418731  9630 layer_factory.hpp:77] Creating layer pool1
I1113 00:11:21.418750  9630 net.cpp:84] Creating Layer pool1
I1113 00:11:21.418766  9630 net.cpp:406] pool1 <- conv1
I1113 00:11:21.418792  9630 net.cpp:380] pool1 -> pool1
I1113 00:11:21.418817  9630 net.cpp:122] Setting up pool1
I1113 00:11:21.418831  9630 net.cpp:129] Top shape: 64 20 12 12 (184320)
I1113 00:11:21.418838  9630 net.cpp:137] Memory required for data: 3887360
I1113 00:11:21.418845  9630 layer_factory.hpp:77] Creating layer conv2
I1113 00:11:21.418859  9630 net.cpp:84] Creating Layer conv2
I1113 00:11:21.418869  9630 net.cpp:406] conv2 <- pool1
I1113 00:11:21.418880  9630 net.cpp:380] conv2 -> conv2
I1113 00:11:21.419230  9630 net.cpp:122] Setting up conv2
I1113 00:11:21.419250  9630 net.cpp:129] Top shape: 64 50 8 8 (204800)
I1113 00:11:21.419262  9630 net.cpp:137] Memory required for data: 4706560
I1113 00:11:21.419281  9630 layer_factory.hpp:77] Creating layer pool2
I1113 00:11:21.419296  9630 net.cpp:84] Creating Layer pool2
I1113 00:11:21.419304  9630 net.cpp:406] pool2 <- conv2
I1113 00:11:21.419317  9630 net.cpp:380] pool2 -> pool2
I1113 00:11:21.419332  9630 net.cpp:122] Setting up pool2
I1113 00:11:21.419342  9630 net.cpp:129] Top shape: 64 50 4 4 (51200)
I1113 00:11:21.419353  9630 net.cpp:137] Memory required for data: 4911360
I1113 00:11:21.419361  9630 layer_factory.hpp:77] Creating layer ip1
I1113 00:11:21.419375  9630 net.cpp:84] Creating Layer ip1
I1113 00:11:21.419384  9630 net.cpp:406] ip1 <- pool2
I1113 00:11:21.419397  9630 net.cpp:380] ip1 -> ip1
I1113 00:11:21.424150  9630 net.cpp:122] Setting up ip1
I1113 00:11:21.424188  9630 net.cpp:129] Top shape: 64 500 (32000)
I1113 00:11:21.424197  9630 net.cpp:137] Memory required for data: 5039360
I1113 00:11:21.424227  9630 layer_factory.hpp:77] Creating layer relu1
I1113 00:11:21.424242  9630 net.cpp:84] Creating Layer relu1
I1113 00:11:21.424249  9630 net.cpp:406] relu1 <- ip1
I1113 00:11:21.424259  9630 net.cpp:367] relu1 -> ip1 (in-place)
I1113 00:11:21.424274  9630 net.cpp:122] Setting up relu1
I1113 00:11:21.424283  9630 net.cpp:129] Top shape: 64 500 (32000)
I1113 00:11:21.424289  9630 net.cpp:137] Memory required for data: 5167360
I1113 00:11:21.424294  9630 layer_factory.hpp:77] Creating layer ip2
I1113 00:11:21.424305  9630 net.cpp:84] Creating Layer ip2
I1113 00:11:21.424311  9630 net.cpp:406] ip2 <- ip1
I1113 00:11:21.424321  9630 net.cpp:380] ip2 -> ip2
I1113 00:11:21.424404  9630 net.cpp:122] Setting up ip2
I1113 00:11:21.424418  9630 net.cpp:129] Top shape: 64 10 (640)
I1113 00:11:21.424424  9630 net.cpp:137] Memory required for data: 5169920
I1113 00:11:21.424434  9630 layer_factory.hpp:77] Creating layer loss
I1113 00:11:21.424445  9630 net.cpp:84] Creating Layer loss
I1113 00:11:21.424453  9630 net.cpp:406] loss <- ip2
I1113 00:11:21.424460  9630 net.cpp:406] loss <- label
I1113 00:11:21.424470  9630 net.cpp:380] loss -> loss
I1113 00:11:21.424489  9630 layer_factory.hpp:77] Creating layer loss
…
I1113 00:11:21.424866  9630 solver.cpp:173] Creating test net (#0) specified by net file: examples/mnist/lenet_train_test.prototxt
I1113 00:11:21.424904  9630 net.cpp:294] The NetState phase (1) differed from the phase (0) specified by a rule in layer mnist
I1113 00:11:21.425043  9630 net.cpp:51] Initializing net from parameters: 
name: "LeNet"
state {
  phase: TEST
}
layer {
  name: "mnist"
  type: "Data"
  top: "data"
  top: "label"
  include {
    phase: TEST
  }
  transform_param {
    scale: 0.00390625
  }
  data_param {
    source: "examples/mnist/mnist_test_lmdb"
    batch_size: 100
    backend: LMDB
  }
}
layer {
  name: "conv1"
  type: "Convolution"
  bottom: "data"
  top: "conv1"
  param {
    lr_mult: 1
  }
  param {
    lr_mult: 2
  }
  convolution_param {
    num_output: 20
    kernel_size: 5
    stride: 1
    weight_filler {
      type: "xavier"
    }
    bias_filler {
      type: "constant"
    }
  }
}
layer {
  name: "pool1"
  type: "Pooling"
  bottom: "conv1"
  top: "pool1"
  pooling_param {
    pool: MAX
    kernel_size: 2
    stride: 2
  }
}
layer {
  name: "conv2"
  type: "Convolution"
  bottom: "pool1"
  top: "conv2"
  param {
    lr_mult: 1
  }
  param {
    lr_mult: 2
  }
  convolution_param {
    num_output: 50
    kernel_size: 5
    stride: 1
    weight_filler {
      type: "xavier"
    }
    bias_filler {
      type: "constant"
    }
  }
}
layer {
  name: "pool2"
  type: "Pooling"
  bottom: "conv2"
  top: "pool2"
  pooling_param {
    pool: MAX
    kernel_size: 2
    stride: 2
  }
}
layer {
  name: "ip1"
  type: "InnerProduct"
  bottom: "pool2"
  top: "ip1"
  param {
    lr_mult: 1
  }
  param {
    lr_mult: 2
  }
  inner_product_param {
    num_output: 500
    weight_filler {
      type: "xavier"
    }
    bias_filler {
      type: "constant"
    }
  }
}
layer {
  name: "relu1"
  type: "ReLU"
  bottom: "ip1"
  top: "ip1"
}
layer {
  name: "ip2"
  type: "InnerProduct"
  bottom: "ip1"
  top: "ip2"
  param {
    lr_mult: 1
  }
  param {
    lr_mult: 2
  }
  inner_product_param {
    num_output: 10
    weight_filler {
      type: "xavier"
    }
    bias_filler {
      type: "constant"
    }
  }
}
layer {
  name: "accuracy"
  type: "Accuracy"
  bottom: "ip2"
  bottom: "label"
  top: "accuracy"
  include {
    phase: TEST
  }
}
layer {
  name: "loss"
  type: "SoftmaxWithLoss"
  bottom: "ip2"
  bottom: "label"
  top: "loss"
}
I1113 00:11:21.425129  9630 layer_factory.hpp:77] Creating layer mnist
I1113 00:11:21.425197  9630 db_lmdb.cpp:35] Opened lmdb examples/mnist/mnist_test_lmdb
I1113 00:11:21.425217  9630 net.cpp:84] Creating Layer mnist
I1113 00:11:21.425228  9630 net.cpp:380] mnist -> data
I1113 00:11:21.425242  9630 net.cpp:380] mnist -> label
I1113 00:11:21.425262  9630 data_layer.cpp:45] output data size: 100,1,28,28
I1113 00:11:21.425323  9630 net.cpp:122] Setting up mnist
I1113 00:11:21.425338  9630 net.cpp:129] Top shape: 100 1 28 28 (78400)
I1113 00:11:21.425346  9630 net.cpp:129] Top shape: 100 (100)
I1113 00:11:21.425354  9630 net.cpp:137] Memory required for data: 314000
I1113 00:11:21.425367  9630 layer_factory.hpp:77] Creating layer label_mnist_1_split
I1113 00:11:21.425379  9630 net.cpp:84] Creating Layer label_mnist_1_split
I1113 00:11:21.425385  9630 net.cpp:406] label_mnist_1_split <- label
I1113 00:11:21.425397  9630 net.cpp:380] label_mnist_1_split -> label_mnist_1_split_0
I1113 00:11:21.425410  9630 net.cpp:380] label_mnist_1_split -> label_mnist_1_split_1
I1113 00:11:21.425426  9630 net.cpp:122] Setting up label_mnist_1_split
I1113 00:11:21.425436  9630 net.cpp:129] Top shape: 100 (100)
I1113 00:11:21.425443  9630 net.cpp:129] Top shape: 100 (100)
I1113 00:11:21.425449  9630 net.cpp:137] Memory required for data: 314800
I1113 00:11:21.425456  9630 layer_factory.hpp:77] Creating layer conv1
I1113 00:11:21.425473  9630 net.cpp:84] Creating Layer conv1
I1113 00:11:21.425484  9630 net.cpp:406] conv1 <- data
I1113 00:11:21.425496  9630 net.cpp:380] conv1 -> conv1
I1113 00:11:21.425541  9630 net.cpp:122] Setting up conv1
I1113 00:11:21.425576  9630 net.cpp:129] Top shape: 100 20 24 24 (1152000)
I1113 00:11:21.425583  9630 net.cpp:137] Memory required for data: 4922800
I1113 00:11:21.425596  9630 layer_factory.hpp:77] Creating layer pool1
I1113 00:11:21.425614  9630 net.cpp:84] Creating Layer pool1
I1113 00:11:21.425629  9630 net.cpp:406] pool1 <- conv1
I1113 00:11:21.425640  9630 net.cpp:380] pool1 -> pool1
I1113 00:11:21.425658  9630 net.cpp:122] Setting up pool1
I1113 00:11:21.425668  9630 net.cpp:129] Top shape: 100 20 12 12 (288000)
I1113 00:11:21.425673  9630 net.cpp:137] Memory required for data: 6074800
I1113 00:11:21.425679  9630 layer_factory.hpp:77] Creating layer conv2
I1113 00:11:21.425696  9630 net.cpp:84] Creating Layer conv2
I1113 00:11:21.425704  9630 net.cpp:406] conv2 <- pool1
I1113 00:11:21.425721  9630 net.cpp:380] conv2 -> conv2
I1113 00:11:21.426010  9630 net.cpp:122] Setting up conv2
I1113 00:11:21.426033  9630 net.cpp:129] Top shape: 100 50 8 8 (320000)
I1113 00:11:21.426040  9630 net.cpp:137] Memory required for data: 7354800
I1113 00:11:21.426055  9630 layer_factory.hpp:77] Creating layer pool2
I1113 00:11:21.426069  9630 net.cpp:84] Creating Layer pool2
I1113 00:11:21.426077  9630 net.cpp:406] pool2 <- conv2
I1113 00:11:21.426089  9630 net.cpp:380] pool2 -> pool2
I1113 00:11:21.426102  9630 net.cpp:122] Setting up pool2
I1113 00:11:21.426112  9630 net.cpp:129] Top shape: 100 50 4 4 (80000)
I1113 00:11:21.426121  9630 net.cpp:137] Memory required for data: 7674800
I1113 00:11:21.426128  9630 layer_factory.hpp:77] Creating layer ip1
I1113 00:11:21.426141  9630 net.cpp:84] Creating Layer ip1
I1113 00:11:21.426151  9630 net.cpp:406] ip1 <- pool2
I1113 00:11:21.426161  9630 net.cpp:380] ip1 -> ip1
I1113 00:11:21.430480  9630 net.cpp:122] Setting up ip1
I1113 00:11:21.430518  9630 net.cpp:129] Top shape: 100 500 (50000)
I1113 00:11:21.430527  9630 net.cpp:137] Memory required for data: 7874800
I1113 00:11:21.430546  9630 layer_factory.hpp:77] Creating layer relu1
I1113 00:11:21.430557  9630 net.cpp:84] Creating Layer relu1
I1113 00:11:21.430565  9630 net.cpp:406] relu1 <- ip1
I1113 00:11:21.430577  9630 net.cpp:367] relu1 -> ip1 (in-place)
I1113 00:11:21.430590  9630 net.cpp:122] Setting up relu1
I1113 00:11:21.430600  9630 net.cpp:129] Top shape: 100 500 (50000)
I1113 00:11:21.430605  9630 net.cpp:137] Memory required for data: 8074800
I1113 00:11:21.430611  9630 layer_factory.hpp:77] Creating layer ip2
I1113 00:11:21.430626  9630 net.cpp:84] Creating Layer ip2
I1113 00:11:21.430634  9630 net.cpp:406] ip2 <- ip1
I1113 00:11:21.430644  9630 net.cpp:380] ip2 -> ip2
I1113 00:11:21.430722  9630 net.cpp:122] Setting up ip2
I1113 00:11:21.430733  9630 net.cpp:129] Top shape: 100 10 (1000)
I1113 00:11:21.430739  9630 net.cpp:137] Memory required for data: 8078800
I1113 00:11:21.430749  9630 layer_factory.hpp:77] Creating layer ip2_ip2_0_split
I1113 00:11:21.430761  9630 net.cpp:84] Creating Layer ip2_ip2_0_split
I1113 00:11:21.430768  9630 net.cpp:406] ip2_ip2_0_split <- ip2
I1113 00:11:21.430778  9630 net.cpp:380] ip2_ip2_0_split -> ip2_ip2_0_split_0
I1113 00:11:21.430788  9630 net.cpp:380] ip2_ip2_0_split -> ip2_ip2_0_split_1
I1113 00:11:21.430799  9630 net.cpp:122] Setting up ip2_ip2_0_split
I1113 00:11:21.430807  9630 net.cpp:129] Top shape: 100 10 (1000)
I1113 00:11:21.430814  9630 net.cpp:129] Top shape: 100 10 (1000)
I1113 00:11:21.430819  9630 net.cpp:137] Memory required for data: 8086800
I1113 00:11:21.430824  9630 layer_factory.hpp:77] Creating layer accuracy
I1113 00:11:21.430835  9630 net.cpp:84] Creating Layer accuracy
I1113 00:11:21.430840  9630 net.cpp:406] accuracy <- ip2_ip2_0_split_0
I1113 00:11:21.430848  9630 net.cpp:406] accuracy <- label_mnist_1_split_0
I1113 00:11:21.430860  9630 net.cpp:380] accuracy -> accuracy
…
