…
I1112 00:04:58.428395 28923 net.cpp:294] The NetState phase (0) differed from the phase (1) specified by a rule in layer mnist
I1112 00:04:58.428408 28923 net.cpp:294] The NetState phase (0) differed from the phase (1) specified by a rule in layer accuracy
I1112 00:04:58.428484 28923 net.cpp:51] Initializing net from parameters: 
name: "LeNet"
state {
  phase: TRAIN
  level: 0
  stage: ""
}
layer {
  name: "mnist"
  type: "Data"
  top: "data"
  top: "label"
  include {
    phase: TRAIN
  }
  transform_param {
    scale: 0.00390625
  }
  data_param {
    source: "examples/mnist/mnist_train_lmdb"
    batch_size: 64
    backend: LMDB
  }
}
layer {
  name: "conv1"
  type: "Convolution"
  bottom: "data"
  top: "conv1"
  param {
    lr_mult: 1
  }
  param {
    lr_mult: 2
  }
  convolution_param {
    num_output: 20
    kernel_size: 3
    stride: 1
    weight_filler {
      type: "xavier"
    }
    bias_filler {
      type: "constant"
    }
  }
}
layer {
  name: "pool1"
  type: "Pooling"
  bottom: "conv1"
  top: "pool1"
  pooling_param {
    pool: MAX
    kernel_size: 2
    stride: 2
  }
}
layer {
  name: "conv2"
  type: "Convolution"
  bottom: "pool1"
  top: "conv2"
  param {
    lr_mult: 1
  }
  param {
    lr_mult: 2
  }
  convolution_param {
    num_output: 30
    kernel_size: 4
    stride: 1
    weight_filler {
      type: "xavier"
    }
    bias_filler {
      type: "constant"
    }
  }
}
layer {
  name: "pool2"
  type: "Pooling"
  bottom: "conv2"
  top: "pool2"
  pooling_param {
    pool: MAX
    kernel_size: 2
    stride: 2
  }
}
layer {
  name: "conv3"
  type: "Convolution"
  bottom: "pool2"
  top: "conv3"
  param {
    lr_mult: 1
  }
  param {
    lr_mult: 2
  }
  convolution_param {
    num_output: 50
    kernel_size: 5
    stride: 1
    weight_filler {
      type: "xavier"
    }
    bias_filler {
      type: "constant"
    }
  }
}
layer {
  name: "pool3"
  type: "Pooling"
  bottom: "conv3"
  top: "pool3"
  pooling_param {
    pool: MAX
    kernel_size: 2
    stride: 2
  }
}
layer {
  name: "ip1"
  type: "InnerProduct"
  bottom: "pool3"
  top: "ip1"
  param {
    lr_mult: 1
  }
  param {
    lr_mult: 2
  }
  inner_product_param {
    num_output: 500
    weight_filler {
      type: "xavier"
    }
    bias_filler {
      type: "constant"
    }
  }
}
layer {
  name: "relu1"
  type: "ReLU"
  bottom: "ip1"
  top: "ip1"
}
layer {
  name: "ip2"
  type: "InnerProduct"
  bottom: "ip1"
  top: "ip2"
  param {
    lr_mult: 1
  }
  param {
    lr_mult: 2
  }
  inner_product_param {
    num_output: 10
    weight_filler {
      type: "xavier"
    }
    bias_filler {
      type: "constant"
    }
  }
}
layer {
  name: "loss"
  type: "SoftmaxWithLoss"
  bottom: "ip2"
  bottom: "label"
  top: "loss"
}
I1112 00:04:58.428539 28923 layer_factory.hpp:77] Creating layer mnist
I1112 00:04:58.428617 28923 db_lmdb.cpp:35] Opened lmdb examples/mnist/mnist_train_lmdb
I1112 00:04:58.428638 28923 net.cpp:84] Creating Layer mnist
I1112 00:04:58.428647 28923 net.cpp:380] mnist -> data
I1112 00:04:58.428666 28923 net.cpp:380] mnist -> label
I1112 00:04:58.428696 28923 data_layer.cpp:45] output data size: 64,1,28,28
I1112 00:04:58.429121 28923 net.cpp:122] Setting up mnist
I1112 00:04:58.429131 28923 net.cpp:129] Top shape: 64 1 28 28 (50176)
I1112 00:04:58.429136 28923 net.cpp:129] Top shape: 64 (64)
I1112 00:04:58.429141 28923 net.cpp:137] Memory required for data: 200960
I1112 00:04:58.429147 28923 layer_factory.hpp:77] Creating layer conv1
I1112 00:04:58.429159 28923 net.cpp:84] Creating Layer conv1
I1112 00:04:58.429169 28923 net.cpp:406] conv1 <- data
I1112 00:04:58.429186 28923 net.cpp:380] conv1 -> conv1
I1112 00:04:58.429220 28923 net.cpp:122] Setting up conv1
I1112 00:04:58.429229 28923 net.cpp:129] Top shape: 64 20 26 26 (865280)
I1112 00:04:58.429235 28923 net.cpp:137] Memory required for data: 3662080
I1112 00:04:58.429250 28923 layer_factory.hpp:77] Creating layer pool1
I1112 00:04:58.429256 28923 net.cpp:84] Creating Layer pool1
I1112 00:04:58.429260 28923 net.cpp:406] pool1 <- conv1
I1112 00:04:58.429266 28923 net.cpp:380] pool1 -> pool1
I1112 00:04:58.429280 28923 net.cpp:122] Setting up pool1
I1112 00:04:58.429297 28923 net.cpp:129] Top shape: 64 20 13 13 (216320)
I1112 00:04:58.429302 28923 net.cpp:137] Memory required for data: 4527360
I1112 00:04:58.429306 28923 layer_factory.hpp:77] Creating layer conv2
I1112 00:04:58.429313 28923 net.cpp:84] Creating Layer conv2
I1112 00:04:58.429317 28923 net.cpp:406] conv2 <- pool1
I1112 00:04:58.429327 28923 net.cpp:380] conv2 -> conv2
I1112 00:04:58.429431 28923 net.cpp:122] Setting up conv2
I1112 00:04:58.429440 28923 net.cpp:129] Top shape: 64 30 10 10 (192000)
I1112 00:04:58.429448 28923 net.cpp:137] Memory required for data: 5295360
I1112 00:04:58.429463 28923 layer_factory.hpp:77] Creating layer pool2
I1112 00:04:58.429476 28923 net.cpp:84] Creating Layer pool2
I1112 00:04:58.429487 28923 net.cpp:406] pool2 <- conv2
I1112 00:04:58.429493 28923 net.cpp:380] pool2 -> pool2
I1112 00:04:58.429504 28923 net.cpp:122] Setting up pool2
I1112 00:04:58.429510 28923 net.cpp:129] Top shape: 64 30 5 5 (48000)
I1112 00:04:58.429514 28923 net.cpp:137] Memory required for data: 5487360
I1112 00:04:58.429518 28923 layer_factory.hpp:77] Creating layer conv3
I1112 00:04:58.429525 28923 net.cpp:84] Creating Layer conv3
I1112 00:04:58.429530 28923 net.cpp:406] conv3 <- pool2
I1112 00:04:58.429535 28923 net.cpp:380] conv3 -> conv3
I1112 00:04:58.429863 28923 net.cpp:122] Setting up conv3
I1112 00:04:58.429872 28923 net.cpp:129] Top shape: 64 50 1 1 (3200)
I1112 00:04:58.429875 28923 net.cpp:137] Memory required for data: 5500160
I1112 00:04:58.429883 28923 layer_factory.hpp:77] Creating layer pool3
I1112 00:04:58.429888 28923 net.cpp:84] Creating Layer pool3
I1112 00:04:58.429898 28923 net.cpp:406] pool3 <- conv3
I1112 00:04:58.429904 28923 net.cpp:380] pool3 -> pool3
I1112 00:04:58.429911 28923 net.cpp:122] Setting up pool3
I1112 00:04:58.429916 28923 net.cpp:129] Top shape: 64 50 1 1 (3200)
I1112 00:04:58.429920 28923 net.cpp:137] Memory required for data: 5512960
I1112 00:04:58.429924 28923 layer_factory.hpp:77] Creating layer ip1
I1112 00:04:58.429930 28923 net.cpp:84] Creating Layer ip1
I1112 00:04:58.429934 28923 net.cpp:406] ip1 <- pool3
I1112 00:04:58.429940 28923 net.cpp:380] ip1 -> ip1
I1112 00:04:58.430160 28923 net.cpp:122] Setting up ip1
I1112 00:04:58.430171 28923 net.cpp:129] Top shape: 64 500 (32000)
I1112 00:04:58.430178 28923 net.cpp:137] Memory required for data: 5640960
I1112 00:04:58.430184 28923 layer_factory.hpp:77] Creating layer relu1
I1112 00:04:58.430191 28923 net.cpp:84] Creating Layer relu1
I1112 00:04:58.430196 28923 net.cpp:406] relu1 <- ip1
I1112 00:04:58.430200 28923 net.cpp:367] relu1 -> ip1 (in-place)
I1112 00:04:58.430207 28923 net.cpp:122] Setting up relu1
I1112 00:04:58.430214 28923 net.cpp:129] Top shape: 64 500 (32000)
I1112 00:04:58.430218 28923 net.cpp:137] Memory required for data: 5768960
I1112 00:04:58.430222 28923 layer_factory.hpp:77] Creating layer ip2
I1112 00:04:58.430227 28923 net.cpp:84] Creating Layer ip2
I1112 00:04:58.430232 28923 net.cpp:406] ip2 <- ip1
I1112 00:04:58.430236 28923 net.cpp:380] ip2 -> ip2
I1112 00:04:58.430292 28923 net.cpp:122] Setting up ip2
I1112 00:04:58.430304 28923 net.cpp:129] Top shape: 64 10 (640)
I1112 00:04:58.430307 28923 net.cpp:137] Memory required for data: 5771520
I1112 00:04:58.430320 28923 layer_factory.hpp:77] Creating layer loss
I1112 00:04:58.430326 28923 net.cpp:84] Creating Layer loss
I1112 00:04:58.430332 28923 net.cpp:406] loss <- ip2
I1112 00:04:58.430337 28923 net.cpp:406] loss <- label
I1112 00:04:58.430348 28923 net.cpp:380] loss -> loss
I1112 00:04:58.430366 28923 layer_factory.hpp:77] Creating layer loss
…
I1112 00:04:58.430629 28923 solver.cpp:173] Creating test net (#0) specified by net file: examples/mnist/lenet_train_test_2.prototxt
I1112 00:04:58.430652 28923 net.cpp:294] The NetState phase (1) differed from the phase (0) specified by a rule in layer mnist
I1112 00:04:58.430739 28923 net.cpp:51] Initializing net from parameters: 
name: "LeNet"
state {
  phase: TEST
}
layer {
  name: "mnist"
  type: "Data"
  top: "data"
  top: "label"
  include {
    phase: TEST
  }
  transform_param {
    scale: 0.00390625
  }
  data_param {
    source: "examples/mnist/mnist_test_lmdb"
    batch_size: 100
    backend: LMDB
  }
}
layer {
  name: "conv1"
  type: "Convolution"
  bottom: "data"
  top: "conv1"
  param {
    lr_mult: 1
  }
  param {
    lr_mult: 2
  }
  convolution_param {
    num_output: 20
    kernel_size: 3
    stride: 1
    weight_filler {
      type: "xavier"
    }
    bias_filler {
      type: "constant"
    }
  }
}
layer {
  name: "pool1"
  type: "Pooling"
  bottom: "conv1"
  top: "pool1"
  pooling_param {
    pool: MAX
    kernel_size: 2
    stride: 2
  }
}
layer {
  name: "conv2"
  type: "Convolution"
  bottom: "pool1"
  top: "conv2"
  param {
    lr_mult: 1
  }
  param {
    lr_mult: 2
  }
  convolution_param {
    num_output: 30
    kernel_size: 4
    stride: 1
    weight_filler {
      type: "xavier"
    }
    bias_filler {
      type: "constant"
    }
  }
}
layer {
  name: "pool2"
  type: "Pooling"
  bottom: "conv2"
  top: "pool2"
  pooling_param {
    pool: MAX
    kernel_size: 2
    stride: 2
  }
}
layer {
  name: "conv3"
  type: "Convolution"
  bottom: "pool2"
  top: "conv3"
  param {
    lr_mult: 1
  }
  param {
    lr_mult: 2
  }
  convolution_param {
    num_output: 50
    kernel_size: 5
    stride: 1
    weight_filler {
      type: "xavier"
    }
    bias_filler {
      type: "constant"
    }
  }
}
layer {
  name: "pool3"
  type: "Pooling"
  bottom: "conv3"
  top: "pool3"
  pooling_param {
    pool: MAX
    kernel_size: 2
    stride: 2
  }
}
layer {
  name: "ip1"
  type: "InnerProduct"
  bottom: "pool3"
  top: "ip1"
  param {
    lr_mult: 1
  }
  param {
    lr_mult: 2
  }
  inner_product_param {
    num_output: 500
    weight_filler {
      type: "xavier"
    }
    bias_filler {
      type: "constant"
    }
  }
}
layer {
  name: "relu1"
  type: "ReLU"
  bottom: "ip1"
  top: "ip1"
}
layer {
  name: "ip2"
  type: "InnerProduct"
  bottom: "ip1"
  top: "ip2"
  param {
    lr_mult: 1
  }
  param {
    lr_mult: 2
  }
  inner_product_param {
    num_output: 10
    weight_filler {
      type: "xavier"
    }
    bias_filler {
      type: "constant"
    }
  }
}
layer {
  name: "accuracy"
  type: "Accuracy"
  bottom: "ip2"
  bottom: "label"
  top: "accuracy"
  include {
    phase: TEST
  }
}
layer {
  name: "loss"
  type: "SoftmaxWithLoss"
  bottom: "ip2"
  bottom: "label"
  top: "loss"
}
I1112 00:04:58.430810 28923 layer_factory.hpp:77] Creating layer mnist
I1112 00:04:58.430861 28923 db_lmdb.cpp:35] Opened lmdb examples/mnist/mnist_test_lmdb
I1112 00:04:58.430876 28923 net.cpp:84] Creating Layer mnist
I1112 00:04:58.430883 28923 net.cpp:380] mnist -> data
I1112 00:04:58.430891 28923 net.cpp:380] mnist -> label
I1112 00:04:58.430905 28923 data_layer.cpp:45] output data size: 100,1,28,28
I1112 00:04:58.430951 28923 net.cpp:122] Setting up mnist
I1112 00:04:58.430963 28923 net.cpp:129] Top shape: 100 1 28 28 (78400)
I1112 00:04:58.430970 28923 net.cpp:129] Top shape: 100 (100)
I1112 00:04:58.430974 28923 net.cpp:137] Memory required for data: 314000
I1112 00:04:58.430980 28923 layer_factory.hpp:77] Creating layer label_mnist_1_split
I1112 00:04:58.430990 28923 net.cpp:84] Creating Layer label_mnist_1_split
I1112 00:04:58.430996 28923 net.cpp:406] label_mnist_1_split <- label
I1112 00:04:58.431010 28923 net.cpp:380] label_mnist_1_split -> label_mnist_1_split_0
I1112 00:04:58.431023 28923 net.cpp:380] label_mnist_1_split -> label_mnist_1_split_1
I1112 00:04:58.431035 28923 net.cpp:122] Setting up label_mnist_1_split
I1112 00:04:58.431042 28923 net.cpp:129] Top shape: 100 (100)
I1112 00:04:58.431049 28923 net.cpp:129] Top shape: 100 (100)
I1112 00:04:58.431058 28923 net.cpp:137] Memory required for data: 314800
I1112 00:04:58.431067 28923 layer_factory.hpp:77] Creating layer conv1
I1112 00:04:58.431082 28923 net.cpp:84] Creating Layer conv1
I1112 00:04:58.431093 28923 net.cpp:406] conv1 <- data
I1112 00:04:58.431102 28923 net.cpp:380] conv1 -> conv1
I1112 00:04:58.431133 28923 net.cpp:122] Setting up conv1
I1112 00:04:58.431143 28923 net.cpp:129] Top shape: 100 20 26 26 (1352000)
I1112 00:04:58.431149 28923 net.cpp:137] Memory required for data: 5722800
I1112 00:04:58.431161 28923 layer_factory.hpp:77] Creating layer pool1
I1112 00:04:58.431172 28923 net.cpp:84] Creating Layer pool1
I1112 00:04:58.431179 28923 net.cpp:406] pool1 <- conv1
I1112 00:04:58.431187 28923 net.cpp:380] pool1 -> pool1
I1112 00:04:58.431198 28923 net.cpp:122] Setting up pool1
I1112 00:04:58.431206 28923 net.cpp:129] Top shape: 100 20 13 13 (338000)
I1112 00:04:58.431212 28923 net.cpp:137] Memory required for data: 7074800
I1112 00:04:58.431217 28923 layer_factory.hpp:77] Creating layer conv2
I1112 00:04:58.431231 28923 net.cpp:84] Creating Layer conv2
I1112 00:04:58.431238 28923 net.cpp:406] conv2 <- pool1
I1112 00:04:58.431247 28923 net.cpp:380] conv2 -> conv2
I1112 00:04:58.431394 28923 net.cpp:122] Setting up conv2
I1112 00:04:58.431407 28923 net.cpp:129] Top shape: 100 30 10 10 (300000)
I1112 00:04:58.431413 28923 net.cpp:137] Memory required for data: 8274800
I1112 00:04:58.431423 28923 layer_factory.hpp:77] Creating layer pool2
I1112 00:04:58.431432 28923 net.cpp:84] Creating Layer pool2
I1112 00:04:58.431438 28923 net.cpp:406] pool2 <- conv2
I1112 00:04:58.431445 28923 net.cpp:380] pool2 -> pool2
I1112 00:04:58.431457 28923 net.cpp:122] Setting up pool2
I1112 00:04:58.431463 28923 net.cpp:129] Top shape: 100 30 5 5 (75000)
I1112 00:04:58.431469 28923 net.cpp:137] Memory required for data: 8574800
I1112 00:04:58.431475 28923 layer_factory.hpp:77] Creating layer conv3
I1112 00:04:58.431485 28923 net.cpp:84] Creating Layer conv3
I1112 00:04:58.431496 28923 net.cpp:406] conv3 <- pool2
I1112 00:04:58.431509 28923 net.cpp:380] conv3 -> conv3
I1112 00:04:58.431964 28923 net.cpp:122] Setting up conv3
I1112 00:04:58.431977 28923 net.cpp:129] Top shape: 100 50 1 1 (5000)
I1112 00:04:58.431987 28923 net.cpp:137] Memory required for data: 8594800
I1112 00:04:58.431998 28923 layer_factory.hpp:77] Creating layer pool3
I1112 00:04:58.432005 28923 net.cpp:84] Creating Layer pool3
I1112 00:04:58.432011 28923 net.cpp:406] pool3 <- conv3
I1112 00:04:58.432018 28923 net.cpp:380] pool3 -> pool3
I1112 00:04:58.432030 28923 net.cpp:122] Setting up pool3
I1112 00:04:58.432037 28923 net.cpp:129] Top shape: 100 50 1 1 (5000)
I1112 00:04:58.432044 28923 net.cpp:137] Memory required for data: 8614800
I1112 00:04:58.432060 28923 layer_factory.hpp:77] Creating layer ip1
I1112 00:04:58.432072 28923 net.cpp:84] Creating Layer ip1
I1112 00:04:58.432081 28923 net.cpp:406] ip1 <- pool3
I1112 00:04:58.432090 28923 net.cpp:380] ip1 -> ip1
I1112 00:04:58.432390 28923 net.cpp:122] Setting up ip1
I1112 00:04:58.432402 28923 net.cpp:129] Top shape: 100 500 (50000)
I1112 00:04:58.432409 28923 net.cpp:137] Memory required for data: 8814800
I1112 00:04:58.432417 28923 layer_factory.hpp:77] Creating layer relu1
I1112 00:04:58.432427 28923 net.cpp:84] Creating Layer relu1
I1112 00:04:58.432433 28923 net.cpp:406] relu1 <- ip1
I1112 00:04:58.432440 28923 net.cpp:367] relu1 -> ip1 (in-place)
I1112 00:04:58.432451 28923 net.cpp:122] Setting up relu1
I1112 00:04:58.432464 28923 net.cpp:129] Top shape: 100 500 (50000)
I1112 00:04:58.432471 28923 net.cpp:137] Memory required for data: 9014800
I1112 00:04:58.432476 28923 layer_factory.hpp:77] Creating layer ip2
I1112 00:04:58.432485 28923 net.cpp:84] Creating Layer ip2
I1112 00:04:58.432494 28923 net.cpp:406] ip2 <- ip1
I1112 00:04:58.432503 28923 net.cpp:380] ip2 -> ip2
I1112 00:04:58.432579 28923 net.cpp:122] Setting up ip2
I1112 00:04:58.432588 28923 net.cpp:129] Top shape: 100 10 (1000)
I1112 00:04:58.432593 28923 net.cpp:137] Memory required for data: 9018800
I1112 00:04:58.432611 28923 layer_factory.hpp:77] Creating layer ip2_ip2_0_split
I1112 00:04:58.432620 28923 net.cpp:84] Creating Layer ip2_ip2_0_split
I1112 00:04:58.432626 28923 net.cpp:406] ip2_ip2_0_split <- ip2
I1112 00:04:58.432633 28923 net.cpp:380] ip2_ip2_0_split -> ip2_ip2_0_split_0
I1112 00:04:58.432642 28923 net.cpp:380] ip2_ip2_0_split -> ip2_ip2_0_split_1
I1112 00:04:58.432652 28923 net.cpp:122] Setting up ip2_ip2_0_split
I1112 00:04:58.432659 28923 net.cpp:129] Top shape: 100 10 (1000)
I1112 00:04:58.432667 28923 net.cpp:129] Top shape: 100 10 (1000)
I1112 00:04:58.432673 28923 net.cpp:137] Memory required for data: 9026800
I1112 00:04:58.432679 28923 layer_factory.hpp:77] Creating layer accuracy
I1112 00:04:58.432691 28923 net.cpp:84] Creating Layer accuracy
I1112 00:04:58.432699 28923 net.cpp:406] accuracy <- ip2_ip2_0_split_0
I1112 00:04:58.432708 28923 net.cpp:406] accuracy <- label_mnist_1_split_0
I1112 00:04:58.432716 28923 net.cpp:380] accuracy -> accuracy
…
