…
I1112 00:30:54.581272 31529 net.cpp:294] The NetState phase (0) differed from the phase (1) specified by a rule in layer mnist
I1112 00:30:54.581286 31529 net.cpp:294] The NetState phase (0) differed from the phase (1) specified by a rule in layer accuracy
I1112 00:30:54.581358 31529 net.cpp:51] Initializing net from parameters: 
name: "LeNet"
state {
  phase: TRAIN
  level: 0
  stage: ""
}
layer {
  name: "mnist"
  type: "Data"
  top: "data"
  top: "label"
  include {
    phase: TRAIN
  }
  transform_param {
    scale: 0.00390625
  }
  data_param {
    source: "examples/mnist/mnist_train_lmdb"
    batch_size: 64
    backend: LMDB
  }
}
layer {
  name: "conv1"
  type: "Convolution"
  bottom: "data"
  top: "conv1"
  param {
    lr_mult: 1
  }
  param {
    lr_mult: 2
  }
  convolution_param {
    num_output: 20
    kernel_size: 5
    stride: 1
    weight_filler {
      type: "xavier"
    }
    bias_filler {
      type: "constant"
    }
  }
}
layer {
  name: "pool1"
  type: "Pooling"
  bottom: "conv1"
  top: "pool1"
  pooling_param {
    pool: MAX
    kernel_size: 2
    stride: 2
  }
}
layer {
  name: "relu0"
  type: "ReLU"
  bottom: "pool1"
  top: "pool1"
}
layer {
  name: "conv2"
  type: "Convolution"
  bottom: "pool1"
  top: "conv2"
  param {
    lr_mult: 1
  }
  param {
    lr_mult: 2
  }
  convolution_param {
    num_output: 50
    kernel_size: 5
    stride: 1
    weight_filler {
      type: "xavier"
    }
    bias_filler {
      type: "constant"
    }
  }
}
layer {
  name: "pool2"
  type: "Pooling"
  bottom: "conv2"
  top: "pool2"
  pooling_param {
    pool: MAX
    kernel_size: 2
    stride: 2
  }
}
layer {
  name: "ip1"
  type: "InnerProduct"
  bottom: "pool2"
  top: "ip1"
  param {
    lr_mult: 1
  }
  param {
    lr_mult: 2
  }
  inner_product_param {
    num_output: 500
    weight_filler {
      type: "xavier"
    }
    bias_filler {
      type: "constant"
    }
  }
}
layer {
  name: "relu1"
  type: "ReLU"
  bottom: "ip1"
  top: "ip1"
}
layer {
  name: "ip2"
  type: "InnerProduct"
  bottom: "ip1"
  top: "ip2"
  param {
    lr_mult: 1
  }
  param {
    lr_mult: 2
  }
  inner_product_param {
    num_output: 10
    weight_filler {
      type: "xavier"
    }
    bias_filler {
      type: "constant"
    }
  }
}
layer {
  name: "loss"
  type: "SoftmaxWithLoss"
  bottom: "ip2"
  bottom: "label"
  top: "loss"
}
I1112 00:30:54.581408 31529 layer_factory.hpp:77] Creating layer mnist
I1112 00:30:54.581491 31529 db_lmdb.cpp:35] Opened lmdb examples/mnist/mnist_train_lmdb
I1112 00:30:54.581514 31529 net.cpp:84] Creating Layer mnist
I1112 00:30:54.581522 31529 net.cpp:380] mnist -> data
I1112 00:30:54.581542 31529 net.cpp:380] mnist -> label
I1112 00:30:54.581570 31529 data_layer.cpp:45] output data size: 64,1,28,28
I1112 00:30:54.581992 31529 net.cpp:122] Setting up mnist
I1112 00:30:54.582001 31529 net.cpp:129] Top shape: 64 1 28 28 (50176)
I1112 00:30:54.582005 31529 net.cpp:129] Top shape: 64 (64)
I1112 00:30:54.582008 31529 net.cpp:137] Memory required for data: 200960
I1112 00:30:54.582015 31529 layer_factory.hpp:77] Creating layer conv1
I1112 00:30:54.582026 31529 net.cpp:84] Creating Layer conv1
I1112 00:30:54.582031 31529 net.cpp:406] conv1 <- data
I1112 00:30:54.582041 31529 net.cpp:380] conv1 -> conv1
I1112 00:30:54.582077 31529 net.cpp:122] Setting up conv1
I1112 00:30:54.582083 31529 net.cpp:129] Top shape: 64 20 24 24 (737280)
I1112 00:30:54.582088 31529 net.cpp:137] Memory required for data: 3150080
I1112 00:30:54.582103 31529 layer_factory.hpp:77] Creating layer pool1
I1112 00:30:54.582114 31529 net.cpp:84] Creating Layer pool1
I1112 00:30:54.582124 31529 net.cpp:406] pool1 <- conv1
I1112 00:30:54.582135 31529 net.cpp:380] pool1 -> pool1
I1112 00:30:54.582151 31529 net.cpp:122] Setting up pool1
I1112 00:30:54.582157 31529 net.cpp:129] Top shape: 64 20 12 12 (184320)
I1112 00:30:54.582160 31529 net.cpp:137] Memory required for data: 3887360
I1112 00:30:54.582165 31529 layer_factory.hpp:77] Creating layer relu0
I1112 00:30:54.582168 31529 net.cpp:84] Creating Layer relu0
I1112 00:30:54.582172 31529 net.cpp:406] relu0 <- pool1
I1112 00:30:54.582177 31529 net.cpp:367] relu0 -> pool1 (in-place)
I1112 00:30:54.582183 31529 net.cpp:122] Setting up relu0
I1112 00:30:54.582188 31529 net.cpp:129] Top shape: 64 20 12 12 (184320)
I1112 00:30:54.582191 31529 net.cpp:137] Memory required for data: 4624640
I1112 00:30:54.582195 31529 layer_factory.hpp:77] Creating layer conv2
I1112 00:30:54.582202 31529 net.cpp:84] Creating Layer conv2
I1112 00:30:54.582206 31529 net.cpp:406] conv2 <- pool1
I1112 00:30:54.582211 31529 net.cpp:380] conv2 -> conv2
I1112 00:30:54.582438 31529 net.cpp:122] Setting up conv2
I1112 00:30:54.582446 31529 net.cpp:129] Top shape: 64 50 8 8 (204800)
I1112 00:30:54.582449 31529 net.cpp:137] Memory required for data: 5443840
I1112 00:30:54.582456 31529 layer_factory.hpp:77] Creating layer pool2
I1112 00:30:54.582464 31529 net.cpp:84] Creating Layer pool2
I1112 00:30:54.582468 31529 net.cpp:406] pool2 <- conv2
I1112 00:30:54.582473 31529 net.cpp:380] pool2 -> pool2
I1112 00:30:54.582479 31529 net.cpp:122] Setting up pool2
I1112 00:30:54.582484 31529 net.cpp:129] Top shape: 64 50 4 4 (51200)
I1112 00:30:54.582487 31529 net.cpp:137] Memory required for data: 5648640
I1112 00:30:54.582490 31529 layer_factory.hpp:77] Creating layer ip1
I1112 00:30:54.582497 31529 net.cpp:84] Creating Layer ip1
I1112 00:30:54.582500 31529 net.cpp:406] ip1 <- pool2
I1112 00:30:54.582506 31529 net.cpp:380] ip1 -> ip1
I1112 00:30:54.585783 31529 net.cpp:122] Setting up ip1
I1112 00:30:54.585796 31529 net.cpp:129] Top shape: 64 500 (32000)
I1112 00:30:54.585799 31529 net.cpp:137] Memory required for data: 5776640
I1112 00:30:54.585810 31529 layer_factory.hpp:77] Creating layer relu1
I1112 00:30:54.585820 31529 net.cpp:84] Creating Layer relu1
I1112 00:30:54.585826 31529 net.cpp:406] relu1 <- ip1
I1112 00:30:54.585831 31529 net.cpp:367] relu1 -> ip1 (in-place)
I1112 00:30:54.585837 31529 net.cpp:122] Setting up relu1
I1112 00:30:54.585842 31529 net.cpp:129] Top shape: 64 500 (32000)
I1112 00:30:54.585845 31529 net.cpp:137] Memory required for data: 5904640
I1112 00:30:54.585849 31529 layer_factory.hpp:77] Creating layer ip2
I1112 00:30:54.585855 31529 net.cpp:84] Creating Layer ip2
I1112 00:30:54.585857 31529 net.cpp:406] ip2 <- ip1
I1112 00:30:54.585862 31529 net.cpp:380] ip2 -> ip2
I1112 00:30:54.585918 31529 net.cpp:122] Setting up ip2
I1112 00:30:54.585922 31529 net.cpp:129] Top shape: 64 10 (640)
I1112 00:30:54.585927 31529 net.cpp:137] Memory required for data: 5907200
I1112 00:30:54.585932 31529 layer_factory.hpp:77] Creating layer loss
I1112 00:30:54.585937 31529 net.cpp:84] Creating Layer loss
I1112 00:30:54.585939 31529 net.cpp:406] loss <- ip2
I1112 00:30:54.585943 31529 net.cpp:406] loss <- label
I1112 00:30:54.585949 31529 net.cpp:380] loss -> loss
I1112 00:30:54.585960 31529 layer_factory.hpp:77] Creating layer loss
…
I1112 00:30:54.586207 31529 solver.cpp:173] Creating test net (#0) specified by net file: examples/mnist/lenet_train_test_3.prototxt
I1112 00:30:54.586228 31529 net.cpp:294] The NetState phase (1) differed from the phase (0) specified by a rule in layer mnist
I1112 00:30:54.586305 31529 net.cpp:51] Initializing net from parameters: 
name: "LeNet"
state {
  phase: TEST
}
layer {
  name: "mnist"
  type: "Data"
  top: "data"
  top: "label"
  include {
    phase: TEST
  }
  transform_param {
    scale: 0.00390625
  }
  data_param {
    source: "examples/mnist/mnist_test_lmdb"
    batch_size: 100
    backend: LMDB
  }
}
layer {
  name: "conv1"
  type: "Convolution"
  bottom: "data"
  top: "conv1"
  param {
    lr_mult: 1
  }
  param {
    lr_mult: 2
  }
  convolution_param {
    num_output: 20
    kernel_size: 5
    stride: 1
    weight_filler {
      type: "xavier"
    }
    bias_filler {
      type: "constant"
    }
  }
}
layer {
  name: "pool1"
  type: "Pooling"
  bottom: "conv1"
  top: "pool1"
  pooling_param {
    pool: MAX
    kernel_size: 2
    stride: 2
  }
}
layer {
  name: "relu0"
  type: "ReLU"
  bottom: "pool1"
  top: "pool1"
}
layer {
  name: "conv2"
  type: "Convolution"
  bottom: "pool1"
  top: "conv2"
  param {
    lr_mult: 1
  }
  param {
    lr_mult: 2
  }
  convolution_param {
    num_output: 50
    kernel_size: 5
    stride: 1
    weight_filler {
      type: "xavier"
    }
    bias_filler {
      type: "constant"
    }
  }
}
layer {
  name: "pool2"
  type: "Pooling"
  bottom: "conv2"
  top: "pool2"
  pooling_param {
    pool: MAX
    kernel_size: 2
    stride: 2
  }
}
layer {
  name: "ip1"
  type: "InnerProduct"
  bottom: "pool2"
  top: "ip1"
  param {
    lr_mult: 1
  }
  param {
    lr_mult: 2
  }
  inner_product_param {
    num_output: 500
    weight_filler {
      type: "xavier"
    }
    bias_filler {
      type: "constant"
    }
  }
}
layer {
  name: "relu1"
  type: "ReLU"
  bottom: "ip1"
  top: "ip1"
}
layer {
  name: "ip2"
  type: "InnerProduct"
  bottom: "ip1"
  top: "ip2"
  param {
    lr_mult: 1
  }
  param {
    lr_mult: 2
  }
  inner_product_param {
    num_output: 10
    weight_filler {
      type: "xavier"
    }
    bias_filler {
      type: "constant"
    }
  }
}
layer {
  name: "accuracy"
  type: "Accuracy"
  bottom: "ip2"
  bottom: "label"
  top: "accuracy"
  include {
    phase: TEST
  }
}
layer {
  name: "loss"
  type: "SoftmaxWithLoss"
  bottom: "ip2"
  bottom: "label"
  top: "loss"
}
I1112 00:30:54.586362 31529 layer_factory.hpp:77] Creating layer mnist
I1112 00:30:54.586407 31529 db_lmdb.cpp:35] Opened lmdb examples/mnist/mnist_test_lmdb
I1112 00:30:54.586421 31529 net.cpp:84] Creating Layer mnist
I1112 00:30:54.586426 31529 net.cpp:380] mnist -> data
I1112 00:30:54.586434 31529 net.cpp:380] mnist -> label
I1112 00:30:54.586448 31529 data_layer.cpp:45] output data size: 100,1,28,28
I1112 00:30:54.586489 31529 net.cpp:122] Setting up mnist
I1112 00:30:54.586496 31529 net.cpp:129] Top shape: 100 1 28 28 (78400)
I1112 00:30:54.586500 31529 net.cpp:129] Top shape: 100 (100)
I1112 00:30:54.586504 31529 net.cpp:137] Memory required for data: 314000
I1112 00:30:54.586508 31529 layer_factory.hpp:77] Creating layer label_mnist_1_split
I1112 00:30:54.586513 31529 net.cpp:84] Creating Layer label_mnist_1_split
I1112 00:30:54.586518 31529 net.cpp:406] label_mnist_1_split <- label
I1112 00:30:54.586522 31529 net.cpp:380] label_mnist_1_split -> label_mnist_1_split_0
I1112 00:30:54.586529 31529 net.cpp:380] label_mnist_1_split -> label_mnist_1_split_1
I1112 00:30:54.586535 31529 net.cpp:122] Setting up label_mnist_1_split
I1112 00:30:54.586540 31529 net.cpp:129] Top shape: 100 (100)
I1112 00:30:54.586554 31529 net.cpp:129] Top shape: 100 (100)
I1112 00:30:54.586556 31529 net.cpp:137] Memory required for data: 314800
I1112 00:30:54.586560 31529 layer_factory.hpp:77] Creating layer conv1
I1112 00:30:54.586572 31529 net.cpp:84] Creating Layer conv1
I1112 00:30:54.586577 31529 net.cpp:406] conv1 <- data
I1112 00:30:54.586587 31529 net.cpp:380] conv1 -> conv1
I1112 00:30:54.586617 31529 net.cpp:122] Setting up conv1
I1112 00:30:54.586625 31529 net.cpp:129] Top shape: 100 20 24 24 (1152000)
I1112 00:30:54.586630 31529 net.cpp:137] Memory required for data: 4922800
I1112 00:30:54.586638 31529 layer_factory.hpp:77] Creating layer pool1
I1112 00:30:54.586645 31529 net.cpp:84] Creating Layer pool1
I1112 00:30:54.586649 31529 net.cpp:406] pool1 <- conv1
I1112 00:30:54.586654 31529 net.cpp:380] pool1 -> pool1
I1112 00:30:54.586663 31529 net.cpp:122] Setting up pool1
I1112 00:30:54.586668 31529 net.cpp:129] Top shape: 100 20 12 12 (288000)
I1112 00:30:54.586673 31529 net.cpp:137] Memory required for data: 6074800
I1112 00:30:54.586678 31529 layer_factory.hpp:77] Creating layer relu0
I1112 00:30:54.586683 31529 net.cpp:84] Creating Layer relu0
I1112 00:30:54.586686 31529 net.cpp:406] relu0 <- pool1
I1112 00:30:54.586690 31529 net.cpp:367] relu0 -> pool1 (in-place)
I1112 00:30:54.586696 31529 net.cpp:122] Setting up relu0
I1112 00:30:54.586700 31529 net.cpp:129] Top shape: 100 20 12 12 (288000)
I1112 00:30:54.586704 31529 net.cpp:137] Memory required for data: 7226800
I1112 00:30:54.586707 31529 layer_factory.hpp:77] Creating layer conv2
I1112 00:30:54.586715 31529 net.cpp:84] Creating Layer conv2
I1112 00:30:54.586719 31529 net.cpp:406] conv2 <- pool1
I1112 00:30:54.586725 31529 net.cpp:380] conv2 -> conv2
I1112 00:30:54.586894 31529 net.cpp:122] Setting up conv2
I1112 00:30:54.586899 31529 net.cpp:129] Top shape: 100 50 8 8 (320000)
I1112 00:30:54.586902 31529 net.cpp:137] Memory required for data: 8506800
I1112 00:30:54.586910 31529 layer_factory.hpp:77] Creating layer pool2
I1112 00:30:54.586916 31529 net.cpp:84] Creating Layer pool2
I1112 00:30:54.586920 31529 net.cpp:406] pool2 <- conv2
I1112 00:30:54.586925 31529 net.cpp:380] pool2 -> pool2
I1112 00:30:54.586931 31529 net.cpp:122] Setting up pool2
I1112 00:30:54.586937 31529 net.cpp:129] Top shape: 100 50 4 4 (80000)
I1112 00:30:54.586941 31529 net.cpp:137] Memory required for data: 8826800
I1112 00:30:54.586946 31529 layer_factory.hpp:77] Creating layer ip1
I1112 00:30:54.586952 31529 net.cpp:84] Creating Layer ip1
I1112 00:30:54.586956 31529 net.cpp:406] ip1 <- pool2
I1112 00:30:54.586961 31529 net.cpp:380] ip1 -> ip1
I1112 00:30:54.589450 31529 net.cpp:122] Setting up ip1
I1112 00:30:54.589465 31529 net.cpp:129] Top shape: 100 500 (50000)
I1112 00:30:54.589468 31529 net.cpp:137] Memory required for data: 9026800
I1112 00:30:54.589479 31529 layer_factory.hpp:77] Creating layer relu1
I1112 00:30:54.589488 31529 net.cpp:84] Creating Layer relu1
I1112 00:30:54.589491 31529 net.cpp:406] relu1 <- ip1
I1112 00:30:54.589498 31529 net.cpp:367] relu1 -> ip1 (in-place)
I1112 00:30:54.589504 31529 net.cpp:122] Setting up relu1
I1112 00:30:54.589509 31529 net.cpp:129] Top shape: 100 500 (50000)
I1112 00:30:54.589511 31529 net.cpp:137] Memory required for data: 9226800
I1112 00:30:54.589514 31529 layer_factory.hpp:77] Creating layer ip2
I1112 00:30:54.589519 31529 net.cpp:84] Creating Layer ip2
I1112 00:30:54.589524 31529 net.cpp:406] ip2 <- ip1
I1112 00:30:54.589529 31529 net.cpp:380] ip2 -> ip2
I1112 00:30:54.589571 31529 net.cpp:122] Setting up ip2
I1112 00:30:54.589576 31529 net.cpp:129] Top shape: 100 10 (1000)
I1112 00:30:54.589579 31529 net.cpp:137] Memory required for data: 9230800
I1112 00:30:54.589584 31529 layer_factory.hpp:77] Creating layer ip2_ip2_0_split
I1112 00:30:54.589589 31529 net.cpp:84] Creating Layer ip2_ip2_0_split
I1112 00:30:54.589592 31529 net.cpp:406] ip2_ip2_0_split <- ip2
I1112 00:30:54.589597 31529 net.cpp:380] ip2_ip2_0_split -> ip2_ip2_0_split_0
I1112 00:30:54.589602 31529 net.cpp:380] ip2_ip2_0_split -> ip2_ip2_0_split_1
I1112 00:30:54.589614 31529 net.cpp:122] Setting up ip2_ip2_0_split
I1112 00:30:54.589624 31529 net.cpp:129] Top shape: 100 10 (1000)
I1112 00:30:54.589628 31529 net.cpp:129] Top shape: 100 10 (1000)
I1112 00:30:54.589630 31529 net.cpp:137] Memory required for data: 9238800
I1112 00:30:54.589633 31529 layer_factory.hpp:77] Creating layer accuracy
I1112 00:30:54.589642 31529 net.cpp:84] Creating Layer accuracy
I1112 00:30:54.589645 31529 net.cpp:406] accuracy <- ip2_ip2_0_split_0
I1112 00:30:54.589649 31529 net.cpp:406] accuracy <- label_mnist_1_split_0
I1112 00:30:54.589654 31529 net.cpp:380] accuracy -> accuracy
…
