…
I1112 02:23:04.134856 11672 net.cpp:294] The NetState phase (0) differed from the phase (1) specified by a rule in layer mnist
I1112 02:23:04.134991 11672 net.cpp:294] The NetState phase (0) differed from the phase (1) specified by a rule in layer accuracy
I1112 02:23:04.135478 11672 net.cpp:51] Initializing net from parameters: 
name: "LeNet"
state {
  phase: TRAIN
  level: 0
  stage: ""
}
layer {
  name: "mnist"
  type: "Data"
  top: "data"
  top: "label"
  include {
    phase: TRAIN
  }
  transform_param {
    scale: 0.00390625
  }
  data_param {
    source: "examples/mnist/mnist_train_lmdb"
    batch_size: 64
    backend: LMDB
  }
}
layer {
  name: "conv1"
  type: "Convolution"
  bottom: "data"
  top: "conv1"
  param {
    lr_mult: 1
  }
  param {
    lr_mult: 2
  }
  convolution_param {
    num_output: 20
    kernel_size: 3
    stride: 1
    weight_filler {
      type: "xavier"
    }
    bias_filler {
      type: "constant"
    }
  }
}
layer {
  name: "pool1"
  type: "Pooling"
  bottom: "conv1"
  top: "pool1"
  pooling_param {
    pool: MAX
    kernel_size: 2
    stride: 2
  }
}
layer {
  name: "conv2"
  type: "Convolution"
  bottom: "pool1"
  top: "conv2"
  param {
    lr_mult: 1
  }
  param {
    lr_mult: 2
  }
  convolution_param {
    num_output: 50
    kernel_size: 5
    stride: 1
    weight_filler {
      type: "xavier"
    }
    bias_filler {
      type: "constant"
    }
  }
}
layer {
  name: "pool2"
  type: "Pooling"
  bottom: "conv2"
  top: "pool2"
  pooling_param {
    pool: MAX
    kernel_size: 2
    stride: 2
  }
}
layer {
  name: "ip1"
  type: "InnerProduct"
  bottom: "pool2"
  top: "ip1"
  param {
    lr_mult: 1
  }
  param {
    lr_mult: 2
  }
  inner_product_param {
    num_output: 500
    weight_filler {
      type: "xavier"
    }
    bias_filler {
      type: "constant"
    }
  }
}
layer {
  name: "relu1"
  type: "ReLU"
  bottom: "ip1"
  top: "ip1"
}
layer {
  name: "ip2"
  type: "InnerProduct"
  bottom: "ip1"
  top: "ip2"
  param {
    lr_mult: 1
  }
  param {
    lr_mult: 2
  }
  inner_product_param {
    num_output: 10
    weight_filler {
      type: "xavier"
    }
    bias_filler {
      type: "constant"
    }
  }
}
layer {
  name: "loss"
  type: "SoftmaxWithLoss"
  bottom: "ip2"
  bottom: "label"
  top: "loss"
}
I1112 02:23:04.135720 11672 layer_factory.hpp:77] Creating layer mnist
I1112 02:23:04.153126 11672 db_lmdb.cpp:35] Opened lmdb examples/mnist/mnist_train_lmdb
I1112 02:23:04.153312 11672 net.cpp:84] Creating Layer mnist
I1112 02:23:04.153385 11672 net.cpp:380] mnist -> data
I1112 02:23:04.153481 11672 net.cpp:380] mnist -> label
I1112 02:23:04.153602 11672 data_layer.cpp:45] output data size: 64,1,28,28
I1112 02:23:04.155601 11672 net.cpp:122] Setting up mnist
I1112 02:23:04.155663 11672 net.cpp:129] Top shape: 64 1 28 28 (50176)
I1112 02:23:04.155690 11672 net.cpp:129] Top shape: 64 (64)
I1112 02:23:04.155707 11672 net.cpp:137] Memory required for data: 200960
I1112 02:23:04.155740 11672 layer_factory.hpp:77] Creating layer conv1
I1112 02:23:04.155805 11672 net.cpp:84] Creating Layer conv1
I1112 02:23:04.155833 11672 net.cpp:406] conv1 <- data
I1112 02:23:04.155889 11672 net.cpp:380] conv1 -> conv1
I1112 02:23:04.156045 11672 net.cpp:122] Setting up conv1
I1112 02:23:04.156105 11672 net.cpp:129] Top shape: 64 20 26 26 (865280)
I1112 02:23:04.156132 11672 net.cpp:137] Memory required for data: 3662080
I1112 02:23:04.156201 11672 layer_factory.hpp:77] Creating layer pool1
I1112 02:23:04.156286 11672 net.cpp:84] Creating Layer pool1
I1112 02:23:04.156333 11672 net.cpp:406] pool1 <- conv1
I1112 02:23:04.156401 11672 net.cpp:380] pool1 -> pool1
I1112 02:23:04.156468 11672 net.cpp:122] Setting up pool1
I1112 02:23:04.156499 11672 net.cpp:129] Top shape: 64 20 13 13 (216320)
I1112 02:23:04.156518 11672 net.cpp:137] Memory required for data: 4527360
I1112 02:23:04.156538 11672 layer_factory.hpp:77] Creating layer conv2
I1112 02:23:04.156574 11672 net.cpp:84] Creating Layer conv2
I1112 02:23:04.156595 11672 net.cpp:406] conv2 <- pool1
I1112 02:23:04.156625 11672 net.cpp:380] conv2 -> conv2
I1112 02:23:04.157835 11672 net.cpp:122] Setting up conv2
I1112 02:23:04.157878 11672 net.cpp:129] Top shape: 64 50 9 9 (259200)
I1112 02:23:04.157913 11672 net.cpp:137] Memory required for data: 5564160
I1112 02:23:04.157953 11672 layer_factory.hpp:77] Creating layer pool2
I1112 02:23:04.157984 11672 net.cpp:84] Creating Layer pool2
I1112 02:23:04.158005 11672 net.cpp:406] pool2 <- conv2
I1112 02:23:04.158030 11672 net.cpp:380] pool2 -> pool2
I1112 02:23:04.158071 11672 net.cpp:122] Setting up pool2
I1112 02:23:04.158107 11672 net.cpp:129] Top shape: 64 50 5 5 (80000)
I1112 02:23:04.158126 11672 net.cpp:137] Memory required for data: 5884160
I1112 02:23:04.158145 11672 layer_factory.hpp:77] Creating layer ip1
I1112 02:23:04.158180 11672 net.cpp:84] Creating Layer ip1
I1112 02:23:04.158200 11672 net.cpp:406] ip1 <- pool2
I1112 02:23:04.158231 11672 net.cpp:380] ip1 -> ip1
I1112 02:23:04.185715 11672 net.cpp:122] Setting up ip1
I1112 02:23:04.185784 11672 net.cpp:129] Top shape: 64 500 (32000)
I1112 02:23:04.185796 11672 net.cpp:137] Memory required for data: 6012160
I1112 02:23:04.185827 11672 layer_factory.hpp:77] Creating layer relu1
I1112 02:23:04.185848 11672 net.cpp:84] Creating Layer relu1
I1112 02:23:04.185860 11672 net.cpp:406] relu1 <- ip1
I1112 02:23:04.185878 11672 net.cpp:367] relu1 -> ip1 (in-place)
I1112 02:23:04.185900 11672 net.cpp:122] Setting up relu1
I1112 02:23:04.185914 11672 net.cpp:129] Top shape: 64 500 (32000)
I1112 02:23:04.185923 11672 net.cpp:137] Memory required for data: 6140160
I1112 02:23:04.185933 11672 layer_factory.hpp:77] Creating layer ip2
I1112 02:23:04.185950 11672 net.cpp:84] Creating Layer ip2
I1112 02:23:04.185961 11672 net.cpp:406] ip2 <- ip1
I1112 02:23:04.185977 11672 net.cpp:380] ip2 -> ip2
I1112 02:23:04.186141 11672 net.cpp:122] Setting up ip2
I1112 02:23:04.186158 11672 net.cpp:129] Top shape: 64 10 (640)
I1112 02:23:04.186168 11672 net.cpp:137] Memory required for data: 6142720
I1112 02:23:04.186185 11672 layer_factory.hpp:77] Creating layer loss
I1112 02:23:04.186218 11672 net.cpp:84] Creating Layer loss
I1112 02:23:04.186225 11672 net.cpp:406] loss <- ip2
I1112 02:23:04.186234 11672 net.cpp:406] loss <- label
I1112 02:23:04.186245 11672 net.cpp:380] loss -> loss
I1112 02:23:04.186269 11672 layer_factory.hpp:77] Creating layer loss
…
I1112 02:23:04.186734 11672 solver.cpp:173] Creating test net (#0) specified by net file: examples/mnist/lenet_train_test_6.prototxt
I1112 02:23:04.186790 11672 net.cpp:294] The NetState phase (1) differed from the phase (0) specified by a rule in layer mnist
I1112 02:23:04.186957 11672 net.cpp:51] Initializing net from parameters: 
name: "LeNet"
state {
  phase: TEST
}
layer {
  name: "mnist"
  type: "Data"
  top: "data"
  top: "label"
  include {
    phase: TEST
  }
  transform_param {
    scale: 0.00390625
  }
  data_param {
    source: "examples/mnist/mnist_test_lmdb"
    batch_size: 100
    backend: LMDB
  }
}
layer {
  name: "conv1"
  type: "Convolution"
  bottom: "data"
  top: "conv1"
  param {
    lr_mult: 1
  }
  param {
    lr_mult: 2
  }
  convolution_param {
    num_output: 20
    kernel_size: 3
    stride: 1
    weight_filler {
      type: "xavier"
    }
    bias_filler {
      type: "constant"
    }
  }
}
layer {
  name: "pool1"
  type: "Pooling"
  bottom: "conv1"
  top: "pool1"
  pooling_param {
    pool: MAX
    kernel_size: 2
    stride: 2
  }
}
layer {
  name: "conv2"
  type: "Convolution"
  bottom: "pool1"
  top: "conv2"
  param {
    lr_mult: 1
  }
  param {
    lr_mult: 2
  }
  convolution_param {
    num_output: 50
    kernel_size: 5
    stride: 1
    weight_filler {
      type: "xavier"
    }
    bias_filler {
      type: "constant"
    }
  }
}
layer {
  name: "pool2"
  type: "Pooling"
  bottom: "conv2"
  top: "pool2"
  pooling_param {
    pool: MAX
    kernel_size: 2
    stride: 2
  }
}
layer {
  name: "ip1"
  type: "InnerProduct"
  bottom: "pool2"
  top: "ip1"
  param {
    lr_mult: 1
  }
  param {
    lr_mult: 2
  }
  inner_product_param {
    num_output: 500
    weight_filler {
      type: "xavier"
    }
    bias_filler {
      type: "constant"
    }
  }
}
layer {
  name: "relu1"
  type: "ReLU"
  bottom: "ip1"
  top: "ip1"
}
layer {
  name: "ip2"
  type: "InnerProduct"
  bottom: "ip1"
  top: "ip2"
  param {
    lr_mult: 1
  }
  param {
    lr_mult: 2
  }
  inner_product_param {
    num_output: 10
    weight_filler {
      type: "xavier"
    }
    bias_filler {
      type: "constant"
    }
  }
}
layer {
  name: "accuracy"
  type: "Accuracy"
  bottom: "ip2"
  bottom: "label"
  top: "accuracy"
  include {
    phase: TEST
  }
}
layer {
  name: "loss"
  type: "SoftmaxWithLoss"
  bottom: "ip2"
  bottom: "label"
  top: "loss"
}
I1112 02:23:04.187073 11672 layer_factory.hpp:77] Creating layer mnist
I1112 02:23:04.204512 11672 db_lmdb.cpp:35] Opened lmdb examples/mnist/mnist_test_lmdb
I1112 02:23:04.204576 11672 net.cpp:84] Creating Layer mnist
I1112 02:23:04.204612 11672 net.cpp:380] mnist -> data
I1112 02:23:04.204634 11672 net.cpp:380] mnist -> label
I1112 02:23:04.204665 11672 data_layer.cpp:45] output data size: 100,1,28,28
I1112 02:23:04.204751 11672 net.cpp:122] Setting up mnist
I1112 02:23:04.204771 11672 net.cpp:129] Top shape: 100 1 28 28 (78400)
I1112 02:23:04.204782 11672 net.cpp:129] Top shape: 100 (100)
I1112 02:23:04.204788 11672 net.cpp:137] Memory required for data: 314000
I1112 02:23:04.204797 11672 layer_factory.hpp:77] Creating layer label_mnist_1_split
I1112 02:23:04.204815 11672 net.cpp:84] Creating Layer label_mnist_1_split
I1112 02:23:04.204824 11672 net.cpp:406] label_mnist_1_split <- label
I1112 02:23:04.204836 11672 net.cpp:380] label_mnist_1_split -> label_mnist_1_split_0
I1112 02:23:04.204851 11672 net.cpp:380] label_mnist_1_split -> label_mnist_1_split_1
I1112 02:23:04.204866 11672 net.cpp:122] Setting up label_mnist_1_split
I1112 02:23:04.204876 11672 net.cpp:129] Top shape: 100 (100)
I1112 02:23:04.204885 11672 net.cpp:129] Top shape: 100 (100)
I1112 02:23:04.204891 11672 net.cpp:137] Memory required for data: 314800
I1112 02:23:04.204898 11672 layer_factory.hpp:77] Creating layer conv1
I1112 02:23:04.204919 11672 net.cpp:84] Creating Layer conv1
I1112 02:23:04.204927 11672 net.cpp:406] conv1 <- data
I1112 02:23:04.204941 11672 net.cpp:380] conv1 -> conv1
I1112 02:23:04.204988 11672 net.cpp:122] Setting up conv1
I1112 02:23:04.205000 11672 net.cpp:129] Top shape: 100 20 26 26 (1352000)
I1112 02:23:04.205008 11672 net.cpp:137] Memory required for data: 5722800
I1112 02:23:04.205026 11672 layer_factory.hpp:77] Creating layer pool1
I1112 02:23:04.205056 11672 net.cpp:84] Creating Layer pool1
I1112 02:23:04.205080 11672 net.cpp:406] pool1 <- conv1
I1112 02:23:04.205090 11672 net.cpp:380] pool1 -> pool1
I1112 02:23:04.205106 11672 net.cpp:122] Setting up pool1
I1112 02:23:04.205117 11672 net.cpp:129] Top shape: 100 20 13 13 (338000)
I1112 02:23:04.205124 11672 net.cpp:137] Memory required for data: 7074800
I1112 02:23:04.205132 11672 layer_factory.hpp:77] Creating layer conv2
I1112 02:23:04.205150 11672 net.cpp:84] Creating Layer conv2
I1112 02:23:04.205158 11672 net.cpp:406] conv2 <- pool1
I1112 02:23:04.205170 11672 net.cpp:380] conv2 -> conv2
I1112 02:23:04.205518 11672 net.cpp:122] Setting up conv2
I1112 02:23:04.205534 11672 net.cpp:129] Top shape: 100 50 9 9 (405000)
I1112 02:23:04.205543 11672 net.cpp:137] Memory required for data: 8694800
I1112 02:23:04.205562 11672 layer_factory.hpp:77] Creating layer pool2
I1112 02:23:04.205574 11672 net.cpp:84] Creating Layer pool2
I1112 02:23:04.205582 11672 net.cpp:406] pool2 <- conv2
I1112 02:23:04.205595 11672 net.cpp:380] pool2 -> pool2
I1112 02:23:04.205610 11672 net.cpp:122] Setting up pool2
I1112 02:23:04.205620 11672 net.cpp:129] Top shape: 100 50 5 5 (125000)
I1112 02:23:04.205626 11672 net.cpp:137] Memory required for data: 9194800
I1112 02:23:04.205633 11672 layer_factory.hpp:77] Creating layer ip1
I1112 02:23:04.205646 11672 net.cpp:84] Creating Layer ip1
I1112 02:23:04.205653 11672 net.cpp:406] ip1 <- pool2
I1112 02:23:04.205665 11672 net.cpp:380] ip1 -> ip1
I1112 02:23:04.216296 11672 net.cpp:122] Setting up ip1
I1112 02:23:04.216354 11672 net.cpp:129] Top shape: 100 500 (50000)
I1112 02:23:04.216367 11672 net.cpp:137] Memory required for data: 9394800
I1112 02:23:04.216389 11672 layer_factory.hpp:77] Creating layer relu1
I1112 02:23:04.216408 11672 net.cpp:84] Creating Layer relu1
I1112 02:23:04.216416 11672 net.cpp:406] relu1 <- ip1
I1112 02:23:04.216428 11672 net.cpp:367] relu1 -> ip1 (in-place)
I1112 02:23:04.216444 11672 net.cpp:122] Setting up relu1
I1112 02:23:04.216454 11672 net.cpp:129] Top shape: 100 500 (50000)
I1112 02:23:04.216459 11672 net.cpp:137] Memory required for data: 9594800
I1112 02:23:04.216466 11672 layer_factory.hpp:77] Creating layer ip2
I1112 02:23:04.216491 11672 net.cpp:84] Creating Layer ip2
I1112 02:23:04.216500 11672 net.cpp:406] ip2 <- ip1
I1112 02:23:04.216511 11672 net.cpp:380] ip2 -> ip2
I1112 02:23:04.216603 11672 net.cpp:122] Setting up ip2
I1112 02:23:04.216614 11672 net.cpp:129] Top shape: 100 10 (1000)
I1112 02:23:04.216620 11672 net.cpp:137] Memory required for data: 9598800
I1112 02:23:04.216631 11672 layer_factory.hpp:77] Creating layer ip2_ip2_0_split
I1112 02:23:04.216642 11672 net.cpp:84] Creating Layer ip2_ip2_0_split
I1112 02:23:04.216650 11672 net.cpp:406] ip2_ip2_0_split <- ip2
I1112 02:23:04.216660 11672 net.cpp:380] ip2_ip2_0_split -> ip2_ip2_0_split_0
I1112 02:23:04.216675 11672 net.cpp:380] ip2_ip2_0_split -> ip2_ip2_0_split_1
I1112 02:23:04.216689 11672 net.cpp:122] Setting up ip2_ip2_0_split
I1112 02:23:04.216698 11672 net.cpp:129] Top shape: 100 10 (1000)
I1112 02:23:04.216706 11672 net.cpp:129] Top shape: 100 10 (1000)
I1112 02:23:04.216713 11672 net.cpp:137] Memory required for data: 9606800
I1112 02:23:04.216720 11672 layer_factory.hpp:77] Creating layer accuracy
I1112 02:23:04.216732 11672 net.cpp:84] Creating Layer accuracy
I1112 02:23:04.216739 11672 net.cpp:406] accuracy <- ip2_ip2_0_split_0
I1112 02:23:04.216748 11672 net.cpp:406] accuracy <- label_mnist_1_split_0
I1112 02:23:04.216759 11672 net.cpp:380] accuracy -> accuracy
…
