…
I1113 00:47:22.200687 10724 net.cpp:294] The NetState phase (0) differed from the phase (1) specified by a rule in layer mnist
I1113 00:47:22.200701 10724 net.cpp:294] The NetState phase (0) differed from the phase (1) specified by a rule in layer accuracy
I1113 00:47:22.200767 10724 net.cpp:51] Initializing net from parameters: 
name: "LeNet"
state {
  phase: TRAIN
  level: 0
  stage: ""
}
layer {
  name: "mnist"
  type: "Data"
  top: "data"
  top: "label"
  include {
    phase: TRAIN
  }
  transform_param {
    scale: 0.00390625
  }
  data_param {
    source: "examples/mnist/mnist_train_lmdb"
    batch_size: 64
    backend: LMDB
  }
}
layer {
  name: "conv1"
  type: "Convolution"
  bottom: "data"
  top: "conv1"
  param {
    lr_mult: 1
  }
  param {
    lr_mult: 2
  }
  convolution_param {
    num_output: 20
    kernel_size: 3
    stride: 1
    weight_filler {
      type: "xavier"
    }
    bias_filler {
      type: "constant"
    }
  }
}
layer {
  name: "pool1"
  type: "Pooling"
  bottom: "conv1"
  top: "pool1"
  pooling_param {
    pool: MAX
    kernel_size: 2
    stride: 2
  }
}
layer {
  name: "conv2"
  type: "Convolution"
  bottom: "pool1"
  top: "conv2"
  param {
    lr_mult: 1
  }
  param {
    lr_mult: 2
  }
  convolution_param {
    num_output: 50
    kernel_size: 5
    stride: 1
    weight_filler {
      type: "xavier"
    }
    bias_filler {
      type: "constant"
    }
  }
}
layer {
  name: "pool2"
  type: "Pooling"
  bottom: "conv2"
  top: "pool2"
  pooling_param {
    pool: MAX
    kernel_size: 2
    stride: 2
  }
}
layer {
  name: "ip1"
  type: "InnerProduct"
  bottom: "pool2"
  top: "ip1"
  param {
    lr_mult: 1
  }
  param {
    lr_mult: 2
  }
  inner_product_param {
    num_output: 500
    weight_filler {
      type: "xavier"
    }
    bias_filler {
      type: "constant"
    }
  }
}
layer {
  name: "relu1"
  type: "ReLU"
  bottom: "ip1"
  top: "ip1"
}
layer {
  name: "ip2"
  type: "InnerProduct"
  bottom: "ip1"
  top: "ip2"
  param {
    lr_mult: 1
  }
  param {
    lr_mult: 2
  }
  inner_product_param {
    num_output: 10
    weight_filler {
      type: "xavier"
    }
    bias_filler {
      type: "constant"
    }
  }
}
layer {
  name: "loss"
  type: "SoftmaxWithLoss"
  bottom: "ip2"
  bottom: "label"
  top: "loss"
}
I1113 00:47:22.200814 10724 layer_factory.hpp:77] Creating layer mnist
I1113 00:47:22.200896 10724 db_lmdb.cpp:35] Opened lmdb examples/mnist/mnist_train_lmdb
I1113 00:47:22.200918 10724 net.cpp:84] Creating Layer mnist
I1113 00:47:22.200927 10724 net.cpp:380] mnist -> data
I1113 00:47:22.200945 10724 net.cpp:380] mnist -> label
I1113 00:47:22.200971 10724 data_layer.cpp:45] output data size: 64,1,28,28
I1113 00:47:22.201398 10724 net.cpp:122] Setting up mnist
I1113 00:47:22.201408 10724 net.cpp:129] Top shape: 64 1 28 28 (50176)
I1113 00:47:22.201413 10724 net.cpp:129] Top shape: 64 (64)
I1113 00:47:22.201416 10724 net.cpp:137] Memory required for data: 200960
I1113 00:47:22.201426 10724 layer_factory.hpp:77] Creating layer conv1
I1113 00:47:22.201439 10724 net.cpp:84] Creating Layer conv1
I1113 00:47:22.201445 10724 net.cpp:406] conv1 <- data
I1113 00:47:22.201454 10724 net.cpp:380] conv1 -> conv1
I1113 00:47:22.201488 10724 net.cpp:122] Setting up conv1
I1113 00:47:22.201494 10724 net.cpp:129] Top shape: 64 20 26 26 (865280)
I1113 00:47:22.201498 10724 net.cpp:137] Memory required for data: 3662080
I1113 00:47:22.201511 10724 layer_factory.hpp:77] Creating layer pool1
I1113 00:47:22.201519 10724 net.cpp:84] Creating Layer pool1
I1113 00:47:22.201529 10724 net.cpp:406] pool1 <- conv1
I1113 00:47:22.201539 10724 net.cpp:380] pool1 -> pool1
I1113 00:47:22.201556 10724 net.cpp:122] Setting up pool1
I1113 00:47:22.201562 10724 net.cpp:129] Top shape: 64 20 13 13 (216320)
I1113 00:47:22.201566 10724 net.cpp:137] Memory required for data: 4527360
I1113 00:47:22.201571 10724 layer_factory.hpp:77] Creating layer conv2
I1113 00:47:22.201580 10724 net.cpp:84] Creating Layer conv2
I1113 00:47:22.201582 10724 net.cpp:406] conv2 <- pool1
I1113 00:47:22.201588 10724 net.cpp:380] conv2 -> conv2
I1113 00:47:22.201813 10724 net.cpp:122] Setting up conv2
I1113 00:47:22.201820 10724 net.cpp:129] Top shape: 64 50 9 9 (259200)
I1113 00:47:22.201824 10724 net.cpp:137] Memory required for data: 5564160
I1113 00:47:22.201833 10724 layer_factory.hpp:77] Creating layer pool2
I1113 00:47:22.201839 10724 net.cpp:84] Creating Layer pool2
I1113 00:47:22.201853 10724 net.cpp:406] pool2 <- conv2
I1113 00:47:22.201858 10724 net.cpp:380] pool2 -> pool2
I1113 00:47:22.201867 10724 net.cpp:122] Setting up pool2
I1113 00:47:22.201872 10724 net.cpp:129] Top shape: 64 50 5 5 (80000)
I1113 00:47:22.201876 10724 net.cpp:137] Memory required for data: 5884160
I1113 00:47:22.201880 10724 layer_factory.hpp:77] Creating layer ip1
I1113 00:47:22.201886 10724 net.cpp:84] Creating Layer ip1
I1113 00:47:22.201892 10724 net.cpp:406] ip1 <- pool2
I1113 00:47:22.201898 10724 net.cpp:380] ip1 -> ip1
I1113 00:47:22.206575 10724 net.cpp:122] Setting up ip1
I1113 00:47:22.206594 10724 net.cpp:129] Top shape: 64 500 (32000)
I1113 00:47:22.206598 10724 net.cpp:137] Memory required for data: 6012160
I1113 00:47:22.206609 10724 layer_factory.hpp:77] Creating layer relu1
I1113 00:47:22.206616 10724 net.cpp:84] Creating Layer relu1
I1113 00:47:22.206620 10724 net.cpp:406] relu1 <- ip1
I1113 00:47:22.206626 10724 net.cpp:367] relu1 -> ip1 (in-place)
I1113 00:47:22.206634 10724 net.cpp:122] Setting up relu1
I1113 00:47:22.206640 10724 net.cpp:129] Top shape: 64 500 (32000)
I1113 00:47:22.206642 10724 net.cpp:137] Memory required for data: 6140160
I1113 00:47:22.206645 10724 layer_factory.hpp:77] Creating layer ip2
I1113 00:47:22.206652 10724 net.cpp:84] Creating Layer ip2
I1113 00:47:22.206655 10724 net.cpp:406] ip2 <- ip1
I1113 00:47:22.206661 10724 net.cpp:380] ip2 -> ip2
I1113 00:47:22.206717 10724 net.cpp:122] Setting up ip2
I1113 00:47:22.206723 10724 net.cpp:129] Top shape: 64 10 (640)
I1113 00:47:22.206727 10724 net.cpp:137] Memory required for data: 6142720
I1113 00:47:22.206732 10724 layer_factory.hpp:77] Creating layer loss
I1113 00:47:22.206739 10724 net.cpp:84] Creating Layer loss
I1113 00:47:22.206743 10724 net.cpp:406] loss <- ip2
I1113 00:47:22.206748 10724 net.cpp:406] loss <- label
I1113 00:47:22.206753 10724 net.cpp:380] loss -> loss
I1113 00:47:22.206765 10724 layer_factory.hpp:77] Creating layer loss
…
I1113 00:47:22.207006 10724 solver.cpp:173] Creating test net (#0) specified by net file: examples/mnist/lenet_train_test_6.prototxt
I1113 00:47:22.207036 10724 net.cpp:294] The NetState phase (1) differed from the phase (0) specified by a rule in layer mnist
I1113 00:47:22.207118 10724 net.cpp:51] Initializing net from parameters: 
name: "LeNet"
state {
  phase: TEST
}
layer {
  name: "mnist"
  type: "Data"
  top: "data"
  top: "label"
  include {
    phase: TEST
  }
  transform_param {
    scale: 0.00390625
  }
  data_param {
    source: "examples/mnist/mnist_test_lmdb"
    batch_size: 100
    backend: LMDB
  }
}
layer {
  name: "conv1"
  type: "Convolution"
  bottom: "data"
  top: "conv1"
  param {
    lr_mult: 1
  }
  param {
    lr_mult: 2
  }
  convolution_param {
    num_output: 20
    kernel_size: 3
    stride: 1
    weight_filler {
      type: "xavier"
    }
    bias_filler {
      type: "constant"
    }
  }
}
layer {
  name: "pool1"
  type: "Pooling"
  bottom: "conv1"
  top: "pool1"
  pooling_param {
    pool: MAX
    kernel_size: 2
    stride: 2
  }
}
layer {
  name: "conv2"
  type: "Convolution"
  bottom: "pool1"
  top: "conv2"
  param {
    lr_mult: 1
  }
  param {
    lr_mult: 2
  }
  convolution_param {
    num_output: 50
    kernel_size: 5
    stride: 1
    weight_filler {
      type: "xavier"
    }
    bias_filler {
      type: "constant"
    }
  }
}
layer {
  name: "pool2"
  type: "Pooling"
  bottom: "conv2"
  top: "pool2"
  pooling_param {
    pool: MAX
    kernel_size: 2
    stride: 2
  }
}
layer {
  name: "ip1"
  type: "InnerProduct"
  bottom: "pool2"
  top: "ip1"
  param {
    lr_mult: 1
  }
  param {
    lr_mult: 2
  }
  inner_product_param {
    num_output: 500
    weight_filler {
      type: "xavier"
    }
    bias_filler {
      type: "constant"
    }
  }
}
layer {
  name: "relu1"
  type: "ReLU"
  bottom: "ip1"
  top: "ip1"
}
layer {
  name: "ip2"
  type: "InnerProduct"
  bottom: "ip1"
  top: "ip2"
  param {
    lr_mult: 1
  }
  param {
    lr_mult: 2
  }
  inner_product_param {
    num_output: 10
    weight_filler {
      type: "xavier"
    }
    bias_filler {
      type: "constant"
    }
  }
}
layer {
  name: "accuracy"
  type: "Accuracy"
  bottom: "ip2"
  bottom: "label"
  top: "accuracy"
  include {
    phase: TEST
  }
}
layer {
  name: "loss"
  type: "SoftmaxWithLoss"
  bottom: "ip2"
  bottom: "label"
  top: "loss"
}
I1113 00:47:22.207181 10724 layer_factory.hpp:77] Creating layer mnist
I1113 00:47:22.207227 10724 db_lmdb.cpp:35] Opened lmdb examples/mnist/mnist_test_lmdb
I1113 00:47:22.207242 10724 net.cpp:84] Creating Layer mnist
I1113 00:47:22.207248 10724 net.cpp:380] mnist -> data
I1113 00:47:22.207255 10724 net.cpp:380] mnist -> label
I1113 00:47:22.207269 10724 data_layer.cpp:45] output data size: 100,1,28,28
I1113 00:47:22.207315 10724 net.cpp:122] Setting up mnist
I1113 00:47:22.207322 10724 net.cpp:129] Top shape: 100 1 28 28 (78400)
I1113 00:47:22.207327 10724 net.cpp:129] Top shape: 100 (100)
I1113 00:47:22.207330 10724 net.cpp:137] Memory required for data: 314000
I1113 00:47:22.207334 10724 layer_factory.hpp:77] Creating layer label_mnist_1_split
I1113 00:47:22.207340 10724 net.cpp:84] Creating Layer label_mnist_1_split
I1113 00:47:22.207345 10724 net.cpp:406] label_mnist_1_split <- label
I1113 00:47:22.207350 10724 net.cpp:380] label_mnist_1_split -> label_mnist_1_split_0
I1113 00:47:22.207357 10724 net.cpp:380] label_mnist_1_split -> label_mnist_1_split_1
I1113 00:47:22.207365 10724 net.cpp:122] Setting up label_mnist_1_split
I1113 00:47:22.207370 10724 net.cpp:129] Top shape: 100 (100)
I1113 00:47:22.207384 10724 net.cpp:129] Top shape: 100 (100)
I1113 00:47:22.207387 10724 net.cpp:137] Memory required for data: 314800
I1113 00:47:22.207392 10724 layer_factory.hpp:77] Creating layer conv1
I1113 00:47:22.207406 10724 net.cpp:84] Creating Layer conv1
I1113 00:47:22.207411 10724 net.cpp:406] conv1 <- data
I1113 00:47:22.207417 10724 net.cpp:380] conv1 -> conv1
I1113 00:47:22.207439 10724 net.cpp:122] Setting up conv1
I1113 00:47:22.207445 10724 net.cpp:129] Top shape: 100 20 26 26 (1352000)
I1113 00:47:22.207449 10724 net.cpp:137] Memory required for data: 5722800
I1113 00:47:22.207458 10724 layer_factory.hpp:77] Creating layer pool1
I1113 00:47:22.207470 10724 net.cpp:84] Creating Layer pool1
I1113 00:47:22.207479 10724 net.cpp:406] pool1 <- conv1
I1113 00:47:22.207484 10724 net.cpp:380] pool1 -> pool1
I1113 00:47:22.207492 10724 net.cpp:122] Setting up pool1
I1113 00:47:22.207497 10724 net.cpp:129] Top shape: 100 20 13 13 (338000)
I1113 00:47:22.207501 10724 net.cpp:137] Memory required for data: 7074800
I1113 00:47:22.207504 10724 layer_factory.hpp:77] Creating layer conv2
I1113 00:47:22.207514 10724 net.cpp:84] Creating Layer conv2
I1113 00:47:22.207518 10724 net.cpp:406] conv2 <- pool1
I1113 00:47:22.207523 10724 net.cpp:380] conv2 -> conv2
I1113 00:47:22.207693 10724 net.cpp:122] Setting up conv2
I1113 00:47:22.207702 10724 net.cpp:129] Top shape: 100 50 9 9 (405000)
I1113 00:47:22.207707 10724 net.cpp:137] Memory required for data: 8694800
I1113 00:47:22.207715 10724 layer_factory.hpp:77] Creating layer pool2
I1113 00:47:22.207722 10724 net.cpp:84] Creating Layer pool2
I1113 00:47:22.207726 10724 net.cpp:406] pool2 <- conv2
I1113 00:47:22.207732 10724 net.cpp:380] pool2 -> pool2
I1113 00:47:22.207739 10724 net.cpp:122] Setting up pool2
I1113 00:47:22.207746 10724 net.cpp:129] Top shape: 100 50 5 5 (125000)
I1113 00:47:22.207748 10724 net.cpp:137] Memory required for data: 9194800
I1113 00:47:22.207752 10724 layer_factory.hpp:77] Creating layer ip1
I1113 00:47:22.207759 10724 net.cpp:84] Creating Layer ip1
I1113 00:47:22.207763 10724 net.cpp:406] ip1 <- pool2
I1113 00:47:22.207772 10724 net.cpp:380] ip1 -> ip1
I1113 00:47:22.211709 10724 net.cpp:122] Setting up ip1
I1113 00:47:22.211735 10724 net.cpp:129] Top shape: 100 500 (50000)
I1113 00:47:22.211740 10724 net.cpp:137] Memory required for data: 9394800
I1113 00:47:22.211750 10724 layer_factory.hpp:77] Creating layer relu1
I1113 00:47:22.211761 10724 net.cpp:84] Creating Layer relu1
I1113 00:47:22.211766 10724 net.cpp:406] relu1 <- ip1
I1113 00:47:22.211772 10724 net.cpp:367] relu1 -> ip1 (in-place)
I1113 00:47:22.211781 10724 net.cpp:122] Setting up relu1
I1113 00:47:22.211784 10724 net.cpp:129] Top shape: 100 500 (50000)
I1113 00:47:22.211788 10724 net.cpp:137] Memory required for data: 9594800
I1113 00:47:22.211791 10724 layer_factory.hpp:77] Creating layer ip2
I1113 00:47:22.211800 10724 net.cpp:84] Creating Layer ip2
I1113 00:47:22.211804 10724 net.cpp:406] ip2 <- ip1
I1113 00:47:22.211810 10724 net.cpp:380] ip2 -> ip2
I1113 00:47:22.211853 10724 net.cpp:122] Setting up ip2
I1113 00:47:22.211858 10724 net.cpp:129] Top shape: 100 10 (1000)
I1113 00:47:22.211861 10724 net.cpp:137] Memory required for data: 9598800
I1113 00:47:22.211868 10724 layer_factory.hpp:77] Creating layer ip2_ip2_0_split
I1113 00:47:22.211872 10724 net.cpp:84] Creating Layer ip2_ip2_0_split
I1113 00:47:22.211876 10724 net.cpp:406] ip2_ip2_0_split <- ip2
I1113 00:47:22.211881 10724 net.cpp:380] ip2_ip2_0_split -> ip2_ip2_0_split_0
I1113 00:47:22.211891 10724 net.cpp:380] ip2_ip2_0_split -> ip2_ip2_0_split_1
I1113 00:47:22.211899 10724 net.cpp:122] Setting up ip2_ip2_0_split
I1113 00:47:22.211902 10724 net.cpp:129] Top shape: 100 10 (1000)
I1113 00:47:22.211906 10724 net.cpp:129] Top shape: 100 10 (1000)
I1113 00:47:22.211910 10724 net.cpp:137] Memory required for data: 9606800
I1113 00:47:22.211913 10724 layer_factory.hpp:77] Creating layer accuracy
I1113 00:47:22.211920 10724 net.cpp:84] Creating Layer accuracy
I1113 00:47:22.211923 10724 net.cpp:406] accuracy <- ip2_ip2_0_split_0
I1113 00:47:22.211928 10724 net.cpp:406] accuracy <- label_mnist_1_split_0
I1113 00:47:22.211933 10724 net.cpp:380] accuracy -> accuracy
…
